checkpoint/cls_loc.pth (torch_old, 23240 bytes, 2 tensors)

weight f4 [44, 128]
0.07547385 -0.0722877 0.028202564 -0.01244732 -0.047856525 -0.070081085 -0.07700403 -0.05831427
0.041429617 -0.0003511235 0.0030441284 -0.013934314 0.063782535 -0.03252842 -0.0014369562 0.038545363
0.044628568 -0.046480946 -0.031218097 -0.032828476 0.010483302 -0.04675153 0.027543664 -0.0034775436
0.055417113 -0.06101712 0.000586167 -0.027222775 0.054052137 0.010308474 -0.00042794645 0.011766143
0.08103531 -0.08014102 -0.03809136 0.05022023 0.07313796 -0.0058209 0.066843905 -0.052810747
-0.025977146 0.044701792 -0.009146728 -0.08673953 0.066890515 -0.007764399 0.038567193 0.020554714
0.07927219 -0.034875233 -0.0027144477 0.05493582 0.052577354 -0.06462407 -0.03320075 -0.06876165
-0.08171462 -0.013021693 0.03270357 0.04431165 -0.0701255 -0.076841876 0.008648336 0.04476022
-0.013773218 -0.043651175 0.012356959 -0.08726384 0.029922396 8.323789e-05 0.022261135 -0.033203255
0.07462884 0.05497686 -0.027631652 0.031265922 0.05632264 0.039344348 0.0016639903 0.05665072
0.06402228 -0.07695394 -0.07361889 0.08514819 0.048547246 0.02921968 -0.06600754 0.05807183
-0.057528593 0.006459415 -0.054855976 -0.06857264 0.036027767 -0.060501937 0.04926411 -0.038810093
-0.008768685 -0.043934707 0.045956425 0.05787889 -0.019857012 -0.036192562 -0.0447813 0.023412354
-0.046710983 -0.08492192 0.027438596 0.06284199 -0.08555841 0.036877 0.061424874 -0.019304402
0.015866458 0.04138779 0.07345938 -0.04020788 -0.06105501 -0.05678956 -0.0060852915 0.007453881
-0.021221697 0.013009973 -0.044876825 0.011605397 -0.06313037 -0.010957062 0.036939256 0.051672734
-0.04174149 -0.07700795 0.041317604 0.08067433 0.030125543 0.08797351 0.009357296 0.005731635
-0.08736603 0.056949712 -0.01321543 -0.038686063 -0.08765818 0.00333485 0.013916761 0.04060491
0.056666292 -0.00038543344 0.03887809 -0.010311514 0.03159246 -0.04698878 -0.07445331 -0.08210117
-0.022424027 -0.047057547 -0.054111242 -0.049003698 -0.07206415 0.007516004 -0.053346287 -0.076273866
-0.0839735 0.08280454 0.06372615 0.056905814 -0.0788698 0.0120636895 0.06664445 0.043869562
-0.0029899105 -0.06990588 0.056717522 -0.06751457 -0.016235545 -0.023979798 -0.086428076 0.057512738
-0.07564862 -0.055284683 -0.003436625 0.039375074 0.070141815 -0.017662466 -0.014425874 -0.06682154
-0.013795465 -0.059456084 -0.00479465 0.05397346 0.032966435 0.018545099 0.0768271 0.016937457
0.041336127 0.040946923 0.015145093 0.08006532 0.008392498 -0.08207559 -0.036742568 0.050058015
-0.0534339 -0.026726484 -0.004164785 0.06895275 -0.002810143 0.07688532 0.03614202 -0.03299701
-0.049437907 0.07005147 -0.053189006 -0.040281344 -0.08777197 -0.08354398 0.055348538 0.05635067
-0.02973796 0.041273855 0.08514387 -0.03460034 -0.06969591 -0.038816806 -0.05207203 -0.03880006
-0.050364166 0.050057165 -0.02281978 0.043221734 0.015585065 -0.046705704 -0.04608978 -0.0077863634
0.036544465 -0.08818233 0.011637352 -0.07388751 0.012381703 0.059310295 -0.030537732 0.024576113
-0.066333786 -0.06248892 0.008481801 -0.039401043 -0.023054369 0.07488652 0.015536644 -0.053010534
0.004559867 0.05948273 0.034029365 -0.043149658 -0.065856054 0.06995765 -0.07984325 -0.00613977
00000000: 0992 9a3d 930b 94bd 1009 e73c d8ef 4bbc
00000010: 3405 44bd ac86 8fbd 4ab4 9dbd f2da 6ebd
00000020: 1ab2 293d 0017 b8b9 0080 473b c04c 64bc
00000030: 6ba0 823d 853c 05bd 4058 bcba bee1 1d3d
00000040: 72cc 363d ce62 3ebd 18bd ffbc 2777 06bd
00000050: 28c2 2b3c 887e 3fbd 40a3 e13c 80e7 63bb
00000060: 0efd 623d 16ed 79bd 00a9 193a 4c02 dfbc
00000070: c665 5d3d e0e4 283c 005e e0b9 c8c6 403c
00000080: d7f5 a53d fa20 a4bd b005 1cbd bab3 4d3d
00000090: 5bc9 953d 40bd bebb 75e5 883d 1550 58bd
000000a0: 06ce d4bc 3a19 373d 28dc 15bc 7fa4 b1bd
000000b0: e5fd 883d 806c febb a2f8 1d3d 5c62 a83c
000000c0: 7559 a23d 55d9 0ebd e0e4 31bb 6204 613d
000000d0: 5a5b 573d a059 84bd 82fd 07bd e8d2 8cbd
000000e0: ff59 a7bd f058 55bc 2ef4 053d 2280 353d
000000f0: f59d 8fbd 465f 9dbd c0b1 0d3c 7e56 373d
00000100: 10a9 61bc 93cb 32bd d874 4a3c 62b7 b2bd
00000110: d01f f53c 0090 ae38 fc5c b63c 2300 08bd
00000120: 01d7 983d 6a2f 613d c65b e2bc b210 003d
00000130: 92b2 663d 8a27 213d 401a da3a 960a 683d
00000140: 1d1e 833d 079a 9dbd 80c5 96bd 2d62 ae3d
00000150: 7ad9 463d 1c5e ef3c f62e 87bd badc 6d3d
00000160: 1aa3 6bbd 80a9 d33b a9b0 60bd d06f 8cbd
00000170: da91 133d e1d0 77bd 2ac9 493d 55f7 1ebd
00000180: 88aa 0fbc e1f4 33bd ce3c 3c3d 6a12 6d3d
00000190: 2cab a2bc a73e 14bd 996c 37bd 44cb bf3c
000001a0: 0454 3fbd 8beb adbd e8c6 e03c 4db3 803d
000001b0: 3f39 afbd 560c 173d a698 7b3d 4424 9ebc
000001c0: 60fa 813c 3e86 293d df71 963d 05b1 24bd
000001d0: d114 7abd 2b9c 68bd 2067 c7bb b03f f43b
000001e0: 20d9 adbc c827 553c c3d0 37bd 9024 3e3c
000001f0: 7f4a 81bd 4085 33bc 9e4d 173d caa6 533d
00000200: 20f9 2abd 58b6 9dbd a63c 293d 9538 a53d
00000210: d8c9 f63c 752b b43d 584f 193c 70d0 bb3b
00000220: f6ec b2bd 1a44 693d 8885 58bc 4775 1ebd
00000230: 2286 b3bd 808d 5a3b 2003 643c 5651 263d
00000240: ea1a 683d 0014 cab9 a23e 1f3d a0f1 28bc
00000250: 1867 013d 4f77 40bd fa7a 98bd a924 a8bd
00000260: 98b2 b7bc 6abf 40bd c0a3 5dbd 1ab8 48bd
00000270: 5e96 93bd d048 f63b a381 5abd 7935 9cbd
00000280: 4cfa abbd 6d95 a93d db82 823d 1216 693d
00000290: 7d86 a1bd c8a6 453c e37c 883d 92b0 333d
000002a0: 60f2 43bb d02a 8fbd a250 683d 1445 8abd
000002b0: 6800 85bc 4871 c4bc 3401 b1bd 7a92 6b3d
000002c0: aaed 9abd 3172 62bd 0039 61bb c247 213d
000002d0: 83a6 8f3d e0b0 90bc 805a 6cbc bbd9 88bd
000002e0: 6006 62bc 3988 73bd 701c 9dbb 4613 5d3d
000002f0: d007 073d e4eb 973c 8757 9d3d 6cc0 8a3c
00000300: 1250 293d f6b7 273d 2023 783c 49f9 a33d
00000310: b080 093c 3f17 a8bd 607f 16bd a209 4d3d
00000320: 81dd 5abd 80f1 dabc c078 88bb 1937 8d3d
00000330: 602a 38bb 0d76 9d3d a809 143d df27 07bd
00000340: 677f 4abd 2577 8f3d b7dc 59bd 0dfe 24bd
00000350: cac1 b3bd 1b19 abbd 26b5 623d f6cf 663d
00000360: 069d f3bc c60e 293d e95f ae3d 16b9 0dbd
00000370: bbbc 8ebd 5ffe 1ebd 7b49 55bd d0ec 1ebd
00000380: a84a 4ebd be08 4d3d 8cf0 babc 4609 313d
00000390: 8058 7f3c 7b4e 3fbd a3c8 3cbd c024 ffbb
000003a0: a6af 153d f098 b4bd 98aa 3e3c 5652 97bd
000003b0: a0dc 4a3c 5aef 723d 442a fabc d853 c93c
000003c0: 02da 87bd 62f4 7fbd 40f7 0a3c fd62 21bd
000003d0: 84dc bcbc 1b5e 993d 688d 7e3c 9321 59bd
000003e0: f06a 953b 2aa4 733d 6062 0b3d b2bd 30bd
000003f0: 8adf 86bd f545 8f3d dc84 a3bd 2030 c9bb

bias f4 [44]
-0.03806956 -0.02876889 0.0527528 -0.06077207 -0.051484767 -0.022546846 -0.04630647 -0.0066272663
0.025226641 0.067680635 -0.12142416 0.043451186 -0.018451184 0.002554997 -0.06024792 0.03326508
0.008854481 0.013848304 -0.038333453 0.00094890303 0.07424637 0.008628114 -0.054137994 -0.021372695
-0.0138719855 0.005973055 -0.055152234 -0.010506957 0.025509601 0.017231522 -0.030982908 0.01290669
-0.006118412 0.024658926 -0.0326319 -0.017303359 0.0694166 -0.053850893 -0.08763997 0.009498522
0.020820765 -0.014783159 -0.016388118 0.031535618
00000000: d4ee 1bbd bcac ebbc 5213 583d 22ec 78bd
00000010: b1e1 52bd 2ab4 b8bc daab 3dbd 8a29 d9bb
00000020: 1aa8 ce3c 259c 8a3d 3bad f8bd dff9 313d
00000030: f026 97bc bd71 273b 86c6 76bd f740 083d
00000040: 6312 113c ffe3 623c 8a03 1dbd cebf 783a
00000050: 7b0e 983d ef5c 0d3c cdbf 5dbd ca15 afbc
00000060: 5347 63bc 9eb9 c33b 4fe7 61bd 5f25 2cbc
00000070: 83f9 d03c 1f29 8d3c decf fdbc 9576 533c
00000080: f67c c8bb 8401 ca3c 07a9 05bd c6bf 8dbc
00000090: 4a2a 8e3d c192 5cbd 967c b3bd b09f 1b3c
000000a0: 4f90 aa3c 1035 72bc 6040 86bc 7e2b 013d
