checkpoint/feature_extractor.pth (torch_old, 298881 bytes, 4 tensors)

conv1.weight f4 [64, 1, 3, 3]
0.29344952 -0.21186523 -0.23304795 -0.06445136 -0.046328556 -0.08876876 -0.12399065 -0.020205202
-0.23753123 0.030823495 0.272229 0.08697975 -0.051312596 0.4434357 0.15851964 0.38900658
-0.05762782 0.3600218 -0.21349363 0.23771514 0.23928525 -0.3027614 -0.22586577 -0.2898037
0.11079765 -0.28502527 0.034280136 0.36225033 0.26555645 0.15089004 0.19291049 -0.106608376
0.30394608 -0.03967055 -0.16237022 0.09566523 0.14705512 0.023347579 0.23196906 0.12253364
-0.23742796 -0.31809393 -0.27711508 0.14288726 -0.045664888 -0.03539029 0.24348842 -0.1839824
-0.21993203 -0.087062754 -0.15030575 0.2599029 -0.2078523 -0.25834346 -0.26319396 0.18987665
-0.19137198 0.09020533 -0.23709153 0.16173759 -0.2847595 0.244984 0.20875037 -0.28374195
-0.2641416 0.36213526 -0.31858188 0.09592542 0.3347714 -0.0116352355 0.17594579 -0.036030937
0.08422492 -0.19635543 0.3548339 0.4023262 0.26628768 -0.16463524 0.39449966 -0.047038775
-0.1458326 -0.26786077 -0.05632606 0.21950433 0.066716164 0.17555751 0.41283694 0.2552467
0.4328876 0.20186225 -0.26289394 -0.3411909 -0.23353773 0.15534241 -0.016217574 0.083401635
0.18029559 -0.0894112 0.2603605 0.04114973 0.24433935 0.10202325 -0.026505318 -0.028973814
-0.2975761 -0.13547453 -0.23305912 -0.22687215 -0.017797101 0.3176197 -0.26465937 -0.30353257
-0.3172164 -0.14420055 -0.13761303 0.115043744 0.111281045 -0.12774478 0.36408183 0.307278
0.03237303 0.2031237 -0.04570609 0.09563973 -0.23719758 0.066608004 0.06321794 -0.09879459
-0.3230868 0.06909111 0.33689713 0.06515616 0.044092424 0.16652395 -0.1247035 0.20529142
-0.30171165 0.13754599 -0.06943686 0.11765865 -0.23748665 0.17577659 0.36073253 0.029745422
0.2776398 -0.21270248 0.13294399 0.20707543 0.19893555 -0.026986042 -0.1227104 0.24562857
0.17562252 -0.07951041 -0.02535884 0.1456537 -0.060119748 -0.30328378 0.22287007 -0.32791254
-0.13844986 0.17949517 -0.24312808 -0.021385275 -0.0629309 0.0069380533 -0.100339994 0.07110811
-0.26022765 0.039991897 -0.260334 0.014040322 0.21990696 -0.23544773 0.040750388 0.21505167
-0.06860772 -0.33129025 0.035307094 -0.3138988 0.053809553 0.0138038 0.18418992 0.31293574
-0.24900427 -0.09031196 -0.23323856 -0.13586034 0.334886 0.075947925 -0.034467693 -0.18423615
-0.23988152 -0.2825191 -0.15323071 -0.2357004 0.05591205 -0.11665691 0.27727777 -0.080677815
0.0343623 -0.30967793 0.28968385 0.254918 -0.085356005 -0.18417218 -0.16329452 -0.04153361
0.18073386 0.2824219 -0.050199084 -0.16332382 0.26016566 -0.11990897 -0.21616174 -0.17164627
-0.2677959 -0.15929562 0.2486812 -0.16690359 -0.22011703 -0.1288025 0.16219407 -0.071178846
0.18160574 0.032633945 0.38058838 0.09197444 -0.09114476 0.24235545 0.17579195 0.013602226
-0.0030820165 -0.22004925 -0.11363932 -0.26626304 -0.28737184 -0.005876385 0.19063687 -0.19965442
-0.21694162 -0.2395197 -0.03564217 -0.08584753 -0.09720868 0.21636888 0.161648 0.2086243
0.14177395 0.30060384 0.22732984 0.37435457 0.16418184 0.38478166 0.35840818 -0.27099106
00000000: 043f 963e 33f3 58be 1fa4 6ebe 13ff 83bd
00000010: 03c3 3dbd 65cc b5bd cfee fdbd 6185 a5bc
00000020: 633b 73be 8e81 fc3c 9961 8b3e 7022 b23d
00000030: 282d 52bd 010a e33e f952 223e df2b c73e
00000040: 260b 6cbd c754 b83e 139e 5abe 996b 733e
00000050: 3107 753e 8b03 9bbe 5b49 67be 2761 94be
00000060: e1e9 e23d d5ee 91be 5469 0c3d e078 b93e
00000070: 04f7 873e eb82 1a3e 548a 453e 7e55 dabd
00000080: d29e 9b3e 967d 22bd 6144 26be 22ec c33d
00000090: 9e95 163e 6c43 bf3c 4c89 6d3e ebf2 fa3d
000000a0: 5120 73be 35dd a2be 07e2 8dbe 0a51 123e
000000b0: 1b0b 3bbd 69f5 10bd 0755 793e e265 3cbe
000000c0: dd35 61be f54d b2bd c0e9 19be fe11 853e
000000d0: 3cd7 54be 9845 84be 5cc1 86be 066f 423e
000000e0: 04f7 43be 92bd b83d 1fc8 72be 8a9e 253e
000000f0: ffcb 91be 16dd 7a3e a8c2 553e a046 91be
00000100: 913d 87be cb69 b93e 2a1d a3be 8c74 c43d
00000110: 2867 ab3e b7a1 3ebc 222b 343e 2d95 13bd
00000120: 1d7e ac3d 6611 49be caac b53e b3fd cd3e
00000130: dc56 883e 2496 28be dcfb c93e bbab 40bd
00000140: 2455 15be 0c25 89be 28b6 66bd bec5 603e
00000150: 7ca2 883d 59c5 333e 5d5f d33e b2af 823e
00000160: 72a3 dd3e fab4 4e3e 099a 86be 93b0 aebe
00000170: 8424 6fbe 1512 1f3e b8da 84bc 7ace aa3d
00000180: 689f 383e 381d b7bd f94d 853e 9f8c 283d
00000190: 1834 7a3e 91f1 d03d ae21 d9bc 7e5a edbc
000001a0: e55b 98be d6b9 0abe 0da7 6ebe 2c51 68be
000001b0: 3acb 91bc 0d9f a23e 6f81 87be 9f68 9bbe
000001c0: 306a a2be 4fa9 13be 6eea 0cbe 0e9c eb3d
000001d0: 51e7 e33d 87cf 02be ef68 ba3e 8b53 9d3e
000001e0: 9599 043d a9ff 4f3e 4f36 3bbd c3de c33d
000001f0: ece3 72be c769 883d 6878 813d d154 cabd
00000200: a26b a5be a47f 8d3d c87d ac3e 9870 853d
00000210: 429a 343d 4185 2a3e 8c64 ffbd ea37 523e
00000220: f379 9abe dbd8 0c3e ea34 8ebd 05f7 f03d
00000230: b32f 73be c7fe 333e efb1 b83e acac f33c
00000240: ce26 8e3e aece 59be 7822 083e 950b 543e
00000250: c3b5 4b3e d511 ddbc 974f fbbd 0e86 7b3e
00000260: 64d6 333e 5bd6 a2bd 58bd cfbc 3e26 153e
00000270: 2040 76bd 0348 9bbe 0d38 643e 27e4 a7be
00000280: cdc5 0dbe 95cd 373e 91f6 78be 2c30 afbc
00000290: eae1 80bd 9c58 e33b 0e7f cdbd 21a1 913d
000002a0: 8f3c 85be 8bce 233d 804a 85be 6109 663c
000002b0: 4a2f 613e 3619 71be e1e9 263d 8136 5c3e
000002c0: 3482 8cbd e09e a9be 2c9e 103d 58b7 a0be
000002d0: 6867 5c3d 5529 623c 489c 3c3e 1d39 a03e
000002e0: fafa 7ebe 7af5 b8bd 17d6 6ebe f91e 0bbe
000002f0: 2e76 ab3e 968a 9b3d ff2d 0dbd 67a8 3cbe
00000300: 80a3 75be 58a6 90be 83e8 1cbe 725b 71be
00000310: 0904 653d d1e9 eebd 5af7 8d3e 693a a5bd
00000320: 7cbf 0c3d 1b8e 9ebe 7151 943e 9d84 823e
00000330: 21cf aebd a297 3cbe ae36 27be 261f 2abd
00000340: 4c12 393e 9a99 903e 8e9d 4dbd 5c3e 27be
00000350: 6f34 853e d692 f5bd 8159 5dbe 0ac4 2fbe
00000360: 8b1c 89be 641e 23be 49a6 7e3e c6e8 2abe
00000370: 5c66 61be cde4 03be 3416 263e 37c6 91bd
00000380: dbf6 393e 2cab 053d 7bdc c23e 185d bc3d
00000390: 1baa babd 072c 783e ce02 343e dfdb 5e3c
000003a0: a8fb 49bb 9754 61be bbbb e8bd a153 88be
000003b0: 6722 93be b18e c0bb 5036 433e 3572 4cbe
000003c0: f225 5ebe a744 75be 86fd 11bd d4d0 afbd
000003d0: 5815 c7bd ce8f 5d3e 0e87 253e 9ca1 553e
000003e0: 312d 113e bfe8 993e 27c9 683e 67ab bf3e
000003f0: 491f 283e 1a02 c53e 4781 b73e 57bf 8abe

conv1.bias f4 [64]
0.27178067 -0.2022788 0.35446277 0.067163855 0.179987 0.16709268 0.1891904 -0.058484912
-0.14187181 0.04361191 0.38913652 -0.115108855 -0.140324 -0.036942363 -0.2512551 -0.027833696
-0.2596423 0.327124 0.44307896 -0.2664589 -0.20946643 0.51366544 0.24164318 -0.17550816
0.22696574 0.039645553 0.06738249 -0.017685791 0.035729654 0.1267358 -0.22848335 -0.14394918
-0.018988976 0.06519011 -0.14289574 0.33120036 0.33208758 -0.10218037 0.20939611 0.020442141
0.35376236 -0.15281518 -0.18246898 -0.086114235 -0.32112578 -0.26138622 -0.09341241 0.42360613
-0.3234949 -0.242726 -0.27848026 0.15419678 -0.24855524 0.008908987 0.114221685 -0.31812868
0.07365826 0.086244635 -0.3310229 0.19417128 -0.055971965 0.32450992 0.10264265 -0.22607584
00000000: d626 8b3e 2c22 4fbe 257c b53e 348d 893d
00000010: 834e 383e 581a 2b3e 21bb 413e e08d 6fbd
00000020: d846 11be 67a2 323d e73c c73e 31be ebbd
00000030: 18b1 0fbe e050 17bd 82a4 80be 7e03 e4bc
00000040: d6ef 84be cc7c a73e 3fdb e23e 4d6d 88be
00000050: 5e7e 56be 947f 033f 4f71 773e 69b8 33be
00000060: b569 683e 6063 223d d5ff 893d cbe1 90bc
00000070: 4259 123d 08c7 013e 8af7 69be 6a67 13be
00000080: c58e 9bbc 6482 853d 4353 12be 1893 a93e
00000090: 6207 aa3e f143 d1bd ef6b 563e 4776 a73c
000000a0: 5720 b53e 957b 1cbe 26d9 3abe a95c b0bd
000000b0: 996a a4be 6ad4 85be 014f bfbd e7e2 d83e
000000c0: 20a1 a5be 2a8d 78be f794 8ebe c3e5 1d3e
000000d0: 4485 7ebe 00f7 113c 0fed e93d c3e1 a2be
000000e0: 24da 963d 07a1 b03d d57b a9be d6d4 463e
000000f0: dc42 65bd 2a26 a63e 4f36 d23d 6d80 67be

conv2.weight f4 [128, 64, 3, 3]
0.03254073 -0.041944046 0.038751327 -0.032067303 -0.010378797 0.013405659 -0.029637465 -0.008902547
-0.013184284 0.006691835 -0.022789732 -0.025117647 -0.009242928 0.028577056 0.03579344 -0.026971003
0.041994713 -0.017123641 -0.038982138 0.027177684 0.03264941 -0.03577447 -0.040359676 0.0049484954
0.005484591 -0.025279442 0.02111457 0.04634127 -0.022720478 -0.031311207 0.021301012 -0.03651655
-0.031125328 0.04019486 -0.02859325 -0.019243507 -0.027811643 -0.011889361 0.0330087 0.01223012
0.03495131 -0.02213849 -0.033361845 -0.0024807134 -0.03204359 -0.010624576 0.028471798 0.0043659685
-0.037650052 0.0017275119 -0.015489661 0.039595667 0.02515859 -0.020757899 -0.027806908 -0.025446812
-0.018464766 0.026607532 -0.027137702 -0.021249415 -0.015786652 -0.04242574 -0.037619323 0.040724006
0.004254784 0.023047648 -0.038377613 0.02129321 -0.001335758 -0.022269066 0.03467452 -0.0005212768
0.015141835 -0.030540986 0.014629713 0.0077010533 -0.010567481 -0.0210518 -0.03456334 -0.0068654045
-0.03534201 0.012620502 -0.027349165 -0.0033812954 0.043139406 0.03837776 0.036456525 0.023455687
0.0005266856 0.00092387944 -0.028358648 -0.005683003 0.035968803 0.026064912 -0.017857883 0.02897693
0.03705136 -0.009443954 -0.014469049 0.020204736 0.020710971 0.015323915 -0.0397403 0.025458591
0.03462678 -0.030097835 -0.03977329 0.039267726 -0.01450627 0.013910734 -0.02120577 0.012377539
-0.025338575 0.018453095 -0.024788087 0.005112091 -0.03900927 0.01695592 0.012154022 0.032667413
0.017262837 -0.031267338 0.024145812 0.016048703 -0.021632517 0.03035178 -0.010000379 0.012810204
0.0037523976 -0.0330267 0.0012260762 -0.03237353 -0.023687184 0.0047199414 0.007503445 -0.030804416
-0.027045306 -0.0022580826 -0.027344488 -0.016775835 0.034684803 -0.0028184715 -0.026544916 0.008435304
-0.029277926 0.040385555 0.018994072 0.0078012026 -0.035956074 -0.03741576 0.03697901 -0.028940532
-0.03961774 0.030929828 -0.036492914 -0.0107325725 -0.015817717 0.0102659175 0.015203933 0.03243775
-0.028183015 0.033882353 -0.026442595 0.010442436 -0.018245636 -0.045640793 0.032621697 0.032852523
-0.012477172 0.022876328 0.029889746 -0.026891077 -0.01777273 -0.012909822 -0.0023779895 0.038694475
-0.034508478 0.040428363 0.033248436 0.029121684 0.031876914 -0.004517326 -0.04120755 -0.018754346
-0.039390784 -0.04026772 0.008850855 -0.019805843 0.03900451 0.0032924607 -0.0023719303 -0.014518659
0.0138363335 0.006656586 0.034187194 -0.044226605 -0.019824727 -0.029545011 -0.04074267 -0.040988874
-0.029627362 0.032359175 0.012032105 0.0018357701 0.009359933 -0.01788681 0.003337181 -0.007460151
0.0185862 -0.040171675 0.019123452 0.026514811 0.009526496 -0.021182766 0.02912702 0.0064219553
0.0021695225 -0.029825503 -0.039200164 0.019919122 -0.017420385 -0.018813852 -0.027944257 0.015389224
0.011091952 0.040813968 0.0104900105 -0.016398242 -0.022650063 0.037908312 0.01931958 -0.017585866
0.01692776 -0.026131254 0.036363266 0.0057135313 0.015528656 -0.0077372435 0.019974478 -0.03952823
0.011456232 0.02958998 0.018608099 0.0066509666 0.021891901 -0.039866917 -0.017147357 -0.014086512
-0.031640995 -0.031675644 -0.018142033 0.0005806575 0.01804699 -0.03143483 0.022198517 0.002265816
00000000: 6e49 053d 85cd 2bbd b6b9 1e3d 0159 03bd
00000010: d40b 2abc 69a3 5b3c 45ca f2bc fddb 11bc
00000020: e502 58bc 2e47 db3b 88b1 babc 86c3 cdbc
00000030: a66f 17bc 6e1a ea3c 249c 123d 4bf2 dcbc
00000040: a602 2c3d e146 8cbc bcab 1fbd bca3 de3c
00000050: 63bb 053d 4088 12bd 3050 25bd fd26 a23b
00000060: 15b8 b33b d516 cfbc 76f8 ac3c 58d0 3d3d
00000070: 4c20 babc 2e40 00bd 767f ae3c 6192 15bd
00000080: 8bfa febc 5ea3 243d 643c eabc 8fa4 9dbc
00000090: 3ed5 e3bc 98cb 42bc 2134 073d d760 483c
000000a0: 1b29 0f3d c75b b5bc 6ea6 08bd 7793 22bb
000000b0: 2440 03bd b412 2ebc b03d e93c 6610 8f3b
000000c0: f136 1abd ae6d e23a 59c8 7dbc 112f 223d
000000d0: 6319 ce3c 780c aabc 50cb e3bc d575 d0bc
000000e0: 6c43 97bc 0af8 d93c e34f debc 4113 aebc
000000f0: 0253 81bc 9dc6 2dbd b816 1abd 37ce 263d
00000100: b76b 8b3b 6cce bc3c d831 1dbd 196f ae3c
00000110: 9a14 afba 9e6d b6bc df06 0e3d 4ba6 08ba
00000120: 7615 783c 1731 fabc 77b1 6f3c 1e59 fc3b
00000130: 3a23 2dbc d374 acbc 4a92 0dbd 30f7 e0bb
00000140: c9c2 10bd 39c6 4e3c 5b0b e0bc b998 5dbb
00000150: f2b2 303d 0032 1d3d 7053 153d 2426 c03c
00000160: 4611 0a3a 8030 723a 6550 e8bc 7c38 babb
00000170: 0654 133d 1586 d53c b24a 92bc 0761 ed3c
00000180: 2bc3 173d d0ba 1abc 970f 6dbc 6784 a53c
00000190: 0eaa a93c 2811 7b3c bac6 22bd 898e d03c
000001a0: cfd4 0d3d bc8f f6bc 51e9 22bd 32d7 203d
000001b0: b5ab 6dbc d9e9 633c b9b7 adbc 29cb 4a3c
000001c0: d892 cfbc f22a 973c 6310 cbbc 5483 a73b
000001d0: 2fc8 1fbd 24e7 8a3c aa21 473c 44ce 053d
000001e0: cb6a 8d3c 2e12 00bd 70cd c53c 9278 833c
000001f0: ad36 b1bc 4ca4 f83c a1d8 23bc e4e1 513c
00000200: c9ea 753b 0147 07bd 4ab4 a03a 1b9a 04bd
00000210: a00b c2bc bda9 9a3b 75df f53b 8b59 fcbc
00000220: 1e8e ddbc 57fc 13bb 8c01 e0bc 7a6d 89bc
00000230: a711 0e3d 1bb6 38bb b974 d9bc 3b34 0a3c
00000240: 43d8 efbc 536b 253d 7599 9b3c 3ba1 ff3b
00000250: ad46 13bd 4541 19bd 4d77 173d b214 edbc
00000260: 3646 22bd 8d60 fd3c 9879 15bd acd7 2fbc
00000270: 2894 81bc 6132 283c eb19 793c 72dd 043d
00000280: 11e0 e6bc 39c8 0a3d 249e d8bc c016 2b3c
00000290: df77 95bc d7f1 3abd 549e 053d 5e90 063d
000002a0: 0d6d 4cbc 2367 bb3c 57db f43c ad4a dcbc
000002b0: 1e98 91bc b883 53bc 0bd8 1bbb 197e 1e3d
000002c0: c358 0dbd 3698 253d 832f 083d 9990 ee3c
000002d0: 5e91 023d 1406 94bb 3fc9 28bd b7a2 99bc
000002e0: 3b58 21bd c4ef 24bd 2d03 113c dd3f a2bc
000002f0: 31c3 1f3d 53c6 573b 6372 1bbb abdf 6dbc
00000300: cab1 623c 7e1f da3b df07 0c3d f526 35bd
00000310: 7767 a2bc 6108 f2bc c9e1 26bd f3e3 27bd
00000320: 15b5 f2bc 0e8b 043d 4e22 453c 399e f03a
00000330: 685a 193c 5c87 92bc 9bb4 5a3b 4874 f4bb
00000340: 1642 983c 0e8b 24bd c9a8 9c3c 9735 d93c
00000350: 0515 1c3c 7b87 adbc ca9b ee3c 446f d23b
00000360: 8c2e 0e3b 9d54 f4bc 5a90 20bd 6d2d a33c
00000370: 32b5 8ebc 821f 9abc 5beb e4bc 1523 7c3c
00000380: 05bb 353c 8c2c 273d 4bde 2b3c 9b55 86bc
00000390: a08c b9bc bf45 1b3d 1944 9e3c 3c10 90bc
000003a0: 16ac 8a3c 3611 d6bc a6f1 143d 9338 bb3b
000003b0: e76b 7e3c b488 fdbb 84a1 a33c 5ae8 21bd
000003c0: ebb2 3b3c b066 f23c 0370 983c 5af0 d93b
000003d0: a556 b33c 7e4b 23bd 9d78 8cbc 1dcb 66bc
000003e0: fd99 01bd 52be 01bd 9a9e 94bc 4437 183a
000003f0: 48d7 933c cfc1 00bd aad9 b53c 167e 143b

conv2.bias f4 [128]
-0.020279404 -0.011366359 -0.026263354 0.031959623 0.06543397 0.060886644 -0.030750928 0.03970388
0.0056555863 -0.012164 -0.031627 -0.037043486 0.022520447 0.0071016545 -0.031260904 0.02247124
0.012440995 -0.0074141175 1.3957103e-06 0.048056897 0.05145693 -0.032486185 0.047967292 0.040993903
0.03112153 0.01393283 0.023776073 -0.013694501 -0.015097412 -0.049138848 -0.03278938 0.026421541
0.0063276915 0.03668186 0.00023286355 0.011134807 -0.0003830233 0.027220283 0.011187248 -0.0051937886
-0.06464074 0.011849115 0.038150363 0.028459193 -0.016411187 0.04073427 0.012453715 -0.003780121
0.009505601 -0.014680739 0.04130236 0.011989112 -0.045643836 0.01386752 0.053632833 0.009678213
-0.0032237654 0.0034543967 -0.02642796 -0.019693077 0.0012492012 -0.020551082 -0.037640687 0.0017111284
0.035670392 0.017083043 -0.025445092 -0.0013679792 0.039386235 0.029111775 0.033187807 -0.026875865
-0.0034424276 -0.015697356 -0.003879657 0.06587303 0.000680888 -0.043272734 0.008303928 0.017100804
0.0116226 -0.020372085 -0.00071574503 -0.041178457 -0.008250992 0.044379666 0.0038027158 -0.02305332
-0.037803717 -0.018639402 0.0023638904 -0.0099443495 -0.022599032 -0.0406708 0.008395524 -0.008779778
0.05755281 0.008626101 0.024083922 -0.019611662 -0.012998493 -0.023776636 -0.034098886 0.076068796
-0.015691482 0.0064402586 0.0032403788 0.026285322 0.026398249 0.043275133 -0.020974953 0.015845772
0.0033288763 0.0047270856 0.015194495 -0.002829383 -0.006759183 -0.02918422 0.052045375 0.013435624
0.00492037 -0.030365257 -0.034086727 0.029348794 -0.04086428 -0.034627408 -0.00085418543 -0.029433481
00000000: fe20 a6bc f739 3abc 3f26 d7bc 18e8 023d
00000010: 3f02 863d 4664 793d 5fe9 fbbc 89a0 223d
00000020: 7f52 b93b 844b 47bc 508b 01bd e9ba 17bd
00000030: cd7c b83c ffb4 e83b 6f0b 00bd 9b15 b83c
00000040: 51d5 4b3c 20f2 f2bb 3e54 bb35 4fd7 443d
00000050: 80c4 523d 3c10 05bd 5a79 443d 39e9 273d
00000060: 94f2 fe3c 8646 643c 0ac6 c23c e65e 60bc
00000070: 235b 77bc d145 49bd 284e 06bd fd71 d83c
00000080: 8658 cf3b b83f 163d d52c 7439 c46e 363c
00000090: 84d0 c8b9 12fd de3c b84a 373c a830 aabb
000000a0: 5d62 84bd ca22 423c 8e43 1c3d 4123 e93c
000000b0: c170 86bc fad8 263d ab0a 4c3c e8bb 77bb
000000c0: 61bd 1b3c 7b87 70bc aa2c 293d fb6d 443c
000000d0: 08f5 3abd 9834 633c 1aae 5b3d 5e91 1e3c
000000e0: cf45 53bb 2963 623b 737f d8bc 6053 a1bc
000000f0: 3dbc a33a be5a a8bc 1f2d 1abd f147 e03a
00000100: 1e1b 123d bdf1 8b3c 3a72 d0bc c44d b3ba
00000110: 7653 213d d17b ee3c f0ef 073d c62a dcbc
00000120: 5a9a 61bb be97 80bc d841 7ebb 70e8 863d
00000130: 9f7d 323a c03e 31bd 330d 083c fc16 8c3c
00000140: b86c 3e3c 5ce3 a6bc d6a0 3bba beaa 28bd
00000150: 2b2f 07bc 74c7 353d fc36 793b 51da bcbc
00000160: 12d8 1abd a9b1 98bc 80eb 1a3b a0ed 22bc
00000170: 9b21 b9bc 6d96 26bd 618d 093c 0fd9 0fbc
00000180: 7fbc 6b3d 7d54 0d3c a54b c53c a3a8 a0bc
00000190: a2f7 54bc 38c7 c2bc 46ab 0bbd f5c9 9b3d
000001a0: 6c8b 80bc ce08 d33b 895c 543b 5154 d73c
000001b0: 2441 d83c 4441 313d aad3 abbc fece 813c
000001c0: 4729 5a3b abe5 9a3b 55f2 783c 2b6d 39bb
000001d0: 237c ddbb bf13 efbc 882d 553d 1721 5c3c
000001e0: 0e3b a13b 8fc0 f8bc 869e 0bbd e26c f03c
000001f0: 4e61 27bd 78d5 0dbd 6aeb 5fba 7c1e f1bc
