checkpoint/score.pth (torch_old, 6212 bytes, 2 tensors)

weight f4 [11, 128]
-0.02207545 -0.020629127 -0.34919563 -0.10572712 -0.046429247 0.19663005 -0.11502385 -0.039182156
-0.03187378 0.014358108 -0.050094366 -0.029566348 -0.19492951 -0.0461487 0.15306187 0.0027750623
0.39456034 -0.08467089 0.24909337 -0.012028384 0.021258468 0.05716129 0.023025684 0.035157856
-0.14862593 0.03333618 0.34632248 0.010316325 0.07876626 0.11358281 -0.07257435 -0.067996085
-0.012812569 0.08795282 0.004345244 -0.03994351 0.41792038 0.4126439 -0.00088208495 0.07869848
0.05913599 -0.08704239 -0.07490771 0.33377314 -0.20884472 -0.074508145 -0.07207627 -0.120752856
-0.18532664 -0.09613879 -0.08100683 -0.20369694 -0.02926674 0.026317064 -0.05013837 0.029876495
0.33563596 0.07285569 0.022307137 0.06911083 -0.029202407 -0.002744534 -0.054184407 -0.051848285
-0.020105777 -0.06767128 -0.07866683 -0.05965319 0.2501368 -0.026803276 0.08319198 -0.05340178
0.04335014 -0.06806548 -0.08903174 -0.162214 0.023665754 0.046053078 0.075777695 -0.020951986
-0.06080617 -0.045219544 0.05171392 -0.027657606 0.1412194 -0.012545581 0.05271742 -0.08754338
-0.06360747 -0.061213776 0.076160625 -0.12185562 -0.17400755 -0.08883424 -0.15325266 0.057570554
-0.0035100318 0.022167102 -0.0077816 0.017751595 -0.16061912 -0.050338797 -0.06338358 0.00773668
-0.14604622 -0.1951231 -0.056805074 -0.19389118 -0.084745444 0.029018996 -0.07113584 0.039885648
0.100999825 -0.042613942 0.0037691952 0.062402293 -0.030987376 0.05007756 0.34391764 -0.025042307
-0.058408204 0.19088559 0.015065595 0.31332535 0.22629231 -0.0029846695 0.15744443 -0.024745855
-0.052159786 -0.047102295 -0.1554927 0.1629543 -0.08222519 -0.007177288 -0.16251776 -0.03804502
-0.018556964 0.15760261 -0.04925577 0.16006818 0.17506984 -0.08219154 -0.09643544 -0.23283479
-0.1045184 -0.024677126 -0.09823191 -0.025893182 0.11161921 -0.05559912 0.06492329 -0.08789789
-0.041150186 0.07145332 -0.11575967 0.05860796 0.017887179 0.113743395 -0.09262667 0.07457014
0.0064626504 -0.055959247 -0.017865364 0.084131725 0.017292272 -0.01933943 -0.05958417 0.05126631
0.0036125155 0.07092641 -0.06110585 -0.025278745 0.10871218 0.028550146 0.046562538 -0.052041236
0.13031359 0.20648648 -0.13055828 -0.18575342 -0.08589038 -0.08702755 0.027055126 0.07000381
-0.11053988 0.071227305 0.04288245 0.12211085 0.06461872 -0.03833084 0.16359338 -0.011586634
0.053055443 0.24045353 0.18959169 -0.061130855 -0.15919715 -0.02541138 0.08526316 0.07099324
0.028678134 0.1583629 0.2106058 -0.14425053 0.07638851 -0.03065329 0.02334099 0.011132097
-0.05933027 -0.061453503 0.043267604 0.015114698 -0.03272029 -0.0157056 0.036463387 -0.033347458
0.056208286 0.079257175 -0.045111924 -0.039895024 -0.084927864 -0.11062934 -0.24488738 -0.06463916
0.085849166 -0.06803648 0.03587979 0.021551656 -0.15619986 -0.030655114 0.04844273 -0.084846
-0.010347597 -0.009042783 0.05514968 0.0887935 -0.041074872 -0.11113504 0.08677842 0.038152773
-0.038856395 -0.044559393 -0.07232558 -0.029564094 0.0019842018 0.06709479 -0.10019197 -0.07811626
0.15788265 -0.039115153 -0.0023106835 -0.24019153 -0.068534814 -0.037315596 -0.1520399 0.15391736
00000000: 93d7 b4bc 6afe a8bc c5c9 b2be 7687 d8bd
00000010: 982c 3ebd 6359 493e a091 ebbd 787d 20bd
00000020: 158e 02bd 453e 6b3c c02f 4dbd 2035 f2bc
00000030: 9a9b 47be 6b06 3dbd 40bc 1c3e d2dd 353b
00000040: d003 ca3e ee67 adbd 5512 7f3e b312 45bc
00000050: 3d26 ae3c f521 6a3d 5ca0 bc3c af01 103d
00000060: 6531 18be 858b 083d 2e51 b13e ce05 293c
00000070: 3450 a13d 1b9e e83d dca1 94bd 8841 8bbd
00000080: cfeb 51bc 9c20 b43d 8c62 8e3b ce9b 23bd
00000090: a9f9 d53e 1046 d33e b83b 67ba ab2c a13d
000000a0: 9438 723d 4843 b2bd 3769 99bd 50e4 aa3e
000000b0: 64db 55be ba97 98bd b99c 93bd 464d f7bd
000000c0: 44c6 3dbe 6ae4 c4bd e9e6 a5bd ee95 50be
000000d0: cdc0 efbc e296 d73c e45d 4dbd 8dbf f43c
000000e0: 7ad8 ab3e 5d35 953d 75bd b63c fb89 8d3d
000000f0: e339 efbc a4dd 33bb 78f0 5dbd de5e 54bd
00000100: dfb4 a4bc 3d97 8abd 131c a1bd e756 74bd
00000110: ee11 803e 8b92 dbbc 8f60 aa3d d3bb 5abd
00000120: eb8f 313d ea65 8bbd 4656 b6bd 6d1b 26be
00000130: afde c13c 27a2 3c3d 5631 9b3d 80a3 abbc
00000140: e40f 79bd 2138 39bd fad1 533d 3492 e2bc
00000150: d29b 103e fb8b 4dbc 39ee 573d f249 b3bd
00000160: a244 82bd 4cbb 7abd 1afa 9b3d 708f f9bd
00000170: 092f 32be baee b5bd 44ee 1cbe 1acf 6b3d
00000180: 9008 66bb c897 b53c cbfc febb cb6b 913c
00000190: 5779 24be 0e30 4ebd 40cf 81bd fa83 fd3b
000001a0: 248d 15be 5ace 47be 70ac 68bd 698b 46be
000001b0: 058f adbd 3fb9 ed3c abaf 91bd 225f 233d
000001c0: ffd8 ce3d f58b 2ebd 9a04 773b 8c99 7f3d
000001d0: 3dd9 fdbc 211e 4d3d f915 b03e 8625 cdbc
000001e0: 713d 6fbd 8377 433e afd5 763c 2e6c a03e
000001f0: 2cb9 673e 729a 43bb 1d39 213e d2b7 cabc
00000200: 80a5 55bd 56ee 40bd 7a39 1fbe 7edd 263e
00000210: ae65 a8bd 752f ebbb 0e6b 26be 18d5 1bbd
00000220: c604 98bc 9462 213e 6bc0 49bd eae8 233e
00000230: 8245 333e 0a54 a8bd f27f c5bd 3e6c 6ebe
00000240: be0d d6bd af27 cabc d02d c9bd f01d d4bc
00000250: 9d98 e43d e7bb 63bd 80f6 843d cf03 b4bd
00000260: 198d 28bd 1e56 923d 6813 edbd e60e 703d
00000270: 2288 923c 4cf2 e83d 0db3 bdbd 3bb8 983d
00000280: a4c4 d33b 8635 65bd 625a 92bc 414d ac3d
00000290: 86a8 8d3c b96d 9ebc 880e 74bd 9ffc 513d
000002a0: f4bf 6c3b de41 913d 214a 7abd 5f15 cfbc
000002b0: 7ea4 de3d ffe1 e93c 5cb8 3e3d 3129 55bd
000002c0: ed70 053e 3171 533e 12b1 05be 2536 3ebe
000002d0: 4ce7 afbd 803b b2bd b6a2 dd3c 285e 8f3d
000002e0: bc62 e2bd 9fdf 913d 82a5 2f3d 4115 fa3d
000002f0: d256 843d cd00 1dbd 0685 273e ded5 3dbc
00000300: aa50 593d 7339 763e 5324 423e 5964 7abd
00000310: 9404 23be 872b d0bc 749e ae3d e764 913d
00000320: 68ee ea3c e229 223e 0ca9 573e 69b6 13be
00000330: 9471 9c3d 9c1c fbbc 9b35 bf3c 6663 363c
00000340: 4c04 73bd abb6 7bbd 5f39 313d a3a3 773c
00000350: b605 06bd 08a9 80bc a25a 153d 5897 08bd
00000360: a93a 663d 9651 a23d 48c7 38bd f768 23bd
00000370: a9ee adbd a391 e2bd c2c3 7abe 8961 84bd
00000380: b0d1 af3d b656 8bbd b0f6 123d 198d b03c
00000390: dbf2 1fbe 6f20 fbbc e26b 463d bdc3 adbd
000003a0: f888 29bc 2e28 14bc a1e4 613d 5ed9 b53d
000003b0: 203e 28bd c59a e3bd e2b8 b13d 1546 1c3d
000003c0: e227 1fbd e983 36bd 6f1f 94bd 6630 f2bc
000003d0: 6209 023b fe68 893d 7331 cdbd 6bfb 9fbd
000003e0: fdab 213e 3637 20bd d66e 17bb c5f4 75be
000003f0: fb5b 8cbd 3dd8 18bd 59b0 1bbe 839c 1d3e

bias f4 [11]
-0.12450197 -0.050165676 -0.057216015 -0.08085541 0.045160197 0.049321104 0.059640396 0.09416123
0.10829257 0.009984074 0.06666783
00000000: e4fa febd 867a 4dbd 575b 6abd 8597 a5bd
00000010: e6f9 383d ed04 4a3d 7d49 743d 9ad7 c03d
00000020: 7fc8 dd3d 3e94 233c 2589 883d
