checkpoint3/cls_loc.pth (torch_old, 23240 bytes, 2 tensors)

weight f4 [44, 128]
00000000: 00f3 c7ba fd69 a2bd 6842 933c 7b0f a13d
00000010: a680 643d 4fba ad3d b009 b4bd d030 46bc
00000020: 927b 1dbd 3c4f f83c d676 463d be91 633d
00000030: 20a6 00bc 7648 04bd 4cf6 8cbd d52d 903d
00000040: 861c 683d 0009 b3bb 98e9 21bd 5f1f 5cbd
00000050: 43b5 a5bd c13c 01bd 6874 6f3c bc51 9dbc
00000060: 0204 533d 90ed 723c 1076 6abd 83c2 96bd
00000070: 882d 953c be06 1c3d 9dcc 47bd 1275 5bbd
00000080: 6048 80bc f237 4e3d b9d1 90bd 010a 983d
00000090: fbed 23bd 83e7 b13d b0c8 2abd e066 0a3d
000000a0: 0cd8 cc3c f8ff 563c 5aa7 153d 3be9 49bd
000000b0: 4a5c 28bd 8093 953b 2544 9f3d eeaf 71bd
000000c0: 3d8b 873d 94ae 92bc 507a a2bd 6221 123d
000000d0: 3cb9 babc 6ef5 dbbc c046 143d 9d69 913d
000000e0: 5038 953c c0db 623c a6d5 283d 516d a13d
000000f0: 9688 8fbd c5d2 66bd e2bf 63bd d2aa 48bd
00000100: 0f76 afbd d0c2 923b 2d0b 833d 60d5 b43c
00000110: b03b ddbb 5e0c adbd a5db a63d d529 82bd
00000120: ca24 03bd 3489 2abd d632 1c3d 5248 033d
00000130: 12cc 123d b43b 073d babf edbc a8a7 9c3c
00000140: 9086 d73c b271 f7bc 022e 2f3d c45f 033d
00000150: 5654 3e3d 60b7 1fbb 726f 4abd b86b 3bbc
00000160: 2155 28bd ada5 8e3d 6247 68bd eada 743d
00000170: 5e32 aabd 7064 a4bd f01d a8bd 93ee 82bd
00000180: 4cc9 abbc cd71 a73d b090 40bd 22fa 6a3d
00000190: fe7c 6c3d af0e 873d 21e8 22bd 28d7 98bc
000001a0: 8628 2c3d 3721 a03d c3d0 b33d e738 9d3d
000001b0: edc1 26bd a1d2 ac3d e41b 9fbd d661 363d
000001c0: 90b1 dd3c b449 c43c 94d3 a3bd 40d3 92ba
000001d0: 00d5 7e3a b384 a4bd 3e39 6c3d f5d7 adbd
000001e0: 7893 43bd e85c a3bd 0e99 fabc cd4e a43d
000001f0: 80e0 543c 70c7 c7bb 12d4 203d eaff 46bd
00000200: de06 403d 7182 8e3d 3255 043d 44d2 033d
00000210: 9009 7ebd 0142 aa3d ca02 313d b3de 963d
00000220: e6d7 203d 6c6d d63c 366c 2e3d 5044 9abc
00000230: 0280 5d3d 519b 1abd 60d4 86bd 9bd7 5abd
00000240: 1277 0dbd 2b06 8c3d af4f b23d e777 983d
00000250: 5b4f a53d 0cde f93c 3df0 adbd 18e3 063d
00000260: 5ec9 373d 6d1a 983d fef3 14bd 928c 293d
00000270: acc5 87bd c640 75bd f606 3c3d 5f0e b2bd
00000280: 4929 94bd 467b 2b3d 5471 0cbd 6652 5e3d
00000290: d586 27bd 8729 8fbd d6d5 4f3d 3414 a6bc
000002a0: a05e 7fbc 954c 5cbd cb12 5fbd b476 993c
000002b0: 80ef 52bd fed8 2f3d 82ae 3d3d 4bc4 34bd
000002c0: b00b db3b fd24 ae3d 1d50 94bd 90ed 993c
000002d0: 13db 41bd 8824 c43c 5201 5abd 9200 aebd
000002e0: fa25 04bd 07ea 8e3d 424c 573d 480b b3bd
000002f0: 16b3 603d 8883 acbc 7634 193d c0bf 55bb
00000300: 062b d7bc 5ead 30bd 90ba 04bc 4da3 a9bd
00000310: 60ab 0b3d b9bd 7fbd dbc3 b2bd 0b03 953d
00000320: 5fe0 6cbd b2d4 653d 8065 903a 3a93 a2bd
00000330: 0bb4 9e3d c94e 963d 2ca4 d1bc fb8c 823d
00000340: 7897 1bbc dc6c a7bc b655 a4bd c6e8 593d
00000350: 74b2 ad3c 32e5 323d f83a 90bc b315 b1bd
00000360: cdb1 b03d f7e0 853d b04e 4c3c 58fa 03bc
00000370: 7ca3 6ebd 1e76 713d 02ec eebc 30f0 e5bb
00000380: 7496 cfbc 91e1 39bd 4996 19bd 5a63 353d
00000390: 0043 c8ba 6051 95bb aafb 183d e15c 25bd
000003a0: fa70 073d d1c8 44bd 444e 40bd 36af 2f3d
000003b0: 8cab c43c a9f9 18bd 642f c7bc 00cc b23c
000003c0: 78bd 11bc 4877 d1bc 0e03 4e3d f866 42bc
000003d0: e516 a23d f759 79bd 87bc 883d 2084 0c3d
000003e0: 002b d53a 95ef a63d 98a4 413c 02e4 8cbd
000003f0: b98a 31bd 1ce9 863c 8c8b e3bc c1e4 47bd
-0.0015254915 -0.07930372 0.017976 0.07864281 0.05578675 0.08482801 -0.0879091 -0.012096599
-0.038447924 0.03031122 0.048453175 0.055558912 -0.007852107 -0.032295667 -0.06882915 0.07039992
0.056667827 -0.0054637194 -0.039529413 -0.053740855 -0.080912136 -0.03155208 0.014615156 -0.019204013
0.051517494 0.014827147 -0.0572415 -0.07361319 0.018210188 0.038092367 -0.04877912 -0.053578444
-0.015659511 0.050346322 -0.070712514 0.07423783 -0.040021878 0.086867355 -0.041695297 0.033789515
0.025005363 0.013122551 0.036536552 -0.04929469 -0.04110364 0.0045647025 0.077766694 -0.05900567
0.066183545 -0.017905511 -0.079334855 0.035676368 -0.022793405 -0.026850428 0.036200285 0.07100222
0.018215328 0.013846338 0.041219376 0.078821786 -0.070084736 -0.05635335 -0.055602916 -0.048991032
-0.0856744 0.00447879 0.06398616 0.022074401 -0.0067515 -0.084496245 0.081473626 -0.06355635
-0.032017507 -0.041634753 0.03813442 0.032051392 0.035839148 0.03301592 -0.029022086 0.019122913
0.026309282 -0.030205581 0.042768486 0.03207375 0.046467148 -0.0024370775 -0.04942269 -0.011439256
-0.04109681 0.06965194 -0.0567087 0.059779085 -0.08310388 -0.080269694 -0.08208835 -0.06393161
-0.02097001 0.08176003 -0.047012985 0.05736745 0.05773639 0.065945975 -0.039772157 -0.018657282
0.042030834 0.07818835 0.087800525 0.07676869 -0.040712286 0.08438612 -0.077689916 0.044526897
0.027062207 0.023960926 -0.0799934 -0.0011201873 0.00097210705 -0.08033123 0.057671778 -0.08488456
-0.04774806 -0.07976705 -0.03059056 0.080228426 0.012992978 -0.006096773 0.039264746 -0.048583902
0.04688155 0.069584735 0.03230781 0.032182947 -0.06202084 0.083133705 0.04321555 0.07366695
0.039268397 0.026175223 0.042583667 -0.018831402 0.054077156 -0.037745778 -0.06583476 -0.053428274
-0.034537382 0.06837114 0.08706605 0.074447446 0.080717765 0.030501388 -0.084930874 0.032931417
0.044869773 0.07426915 -0.0363655 0.041393824 -0.066295 -0.059876226 0.045905076 -0.08694147
-0.07234437 0.04186561 -0.034287766 0.0542778 -0.04090007 -0.069903426 0.05074104 -0.020273305
-0.015586525 -0.05378397 -0.05446128 0.01873336 -0.051497936 0.04293155 0.046309 -0.044132512
0.006684743 0.08503149 -0.07241843 0.018790036 -0.047328066 0.0239432 -0.053223915 -0.084962025
-0.03226278 0.06978231 0.05256296 -0.08742386 0.05485829 -0.021058813 0.037403546 -0.0032615513
-0.026265632 -0.043134086 -0.008101121 -0.082831 0.034098983 -0.062436793 -0.08728763 0.07275971
-0.057831164 0.056111045 0.0011016577 -0.079382375 0.07749184 0.07339246 -0.025590979 0.06374546
-0.009496562 -0.02043765 -0.080241606 0.053200506 0.021203257 0.04367561 -0.017606243 -0.08646717
0.08627663 0.06537049 0.012469932 -0.008055292 -0.05826138 0.058950536 -0.029165272 -0.007017158
-0.025340296 -0.045381133 -0.03749684 0.044284202 -0.0015278757 -0.00455682 0.03734938 -0.04037178
0.033066727 -0.048043076 -0.04694964 0.042891704 0.024007581 -0.03734747 -0.02431459 0.02182579
-0.0088952705 -0.025569573 0.050295882 -0.01186537 0.07914523 -0.060876813 0.06676584 0.03430569
0.0016263425 0.081511654 0.011819027 -0.068794265 -0.043345187 0.016468577 -0.027776502 -0.04880214

bias f4 [44]
00000000: 3d30 b13d 90fe d23b bf4a 87bd d743 69bd
00000010: eadd 3cbb c348 403d a99e 063d 1ac6 033d
00000020: bdcb 2ebd e91c a53a daff 6e3b 8258 543d
00000030: adc1 c43c b95e 513c a6a6 833d 9d0d 643d
00000040: 6788 c5bd 41c9 f5bc 4f61 1fbc 7817 4cbd
00000050: e5cc f5bb 225f 123d fce6 483c b118 a13d
00000060: 3249 9e3d 05fd 10bd dedb da3c 4728 5bbc
00000070: 8082 7f3d 3d36 2ebd 1ef2 5d3c 60a7 73bd
00000080: 5bb8 a1bd 2bb7 5b3d 2816 9abd 58ff 97bd
00000090: 9474 7bbc 563e d6bc 4241 2b3d 4d66 f13c
000000a0: f8eb ac3c 963f 973c d487 513d 7500 a93c
0.08651779 0.0064390376 -0.066060536 -0.056949463 -0.0028818795 0.04694439 0.032866154 0.032171346
-0.04267477 0.0012597117 0.0036468417 0.05184222 0.024018133 0.012778931 0.0642827 0.055677045
-0.09645157 -0.030003192 -0.00972779 -0.04982707 -0.007501232 0.035735257 0.012262102 0.07866038
0.07728805 -0.03539755 0.026716169 -0.013376302 0.062380314 -0.042532194 0.013546495 -0.059485793
-0.07896491 0.05364148 -0.07523757 -0.0742175 -0.015347619 -0.026152771 0.04181028 0.029467726
0.021108612 0.018462937 0.051154926 0.0206301
