checkpoint3/feature_extractor.pth (torch_old, 298881 bytes, 4 tensors)

conv1.weight f4 [64, 1, 3, 3]
00000000: cddc a43e 87ec 3bbe 3cc8 77be 8920 d6bc
00000010: 023a b4bc 1f38 a6bd 1eb0 cdbd 1ee7 f5bb
00000020: d0ee 69be f30b 0f3d 4454 883e c3e7 a93d
00000030: 19bf 5fbd 3201 dc3e 26f0 163e 9f9e c03e
00000040: a8aa a6bd 1783 af3e f2fc 47be 61b7 803e
00000050: f707 823e ec19 9abe 1e5e 64be 32a8 95be
00000060: 742b f63d 0ba7 8fbe c797 ec3c 220d bf3e
00000070: d5d0 873e a566 1c3e 95aa 433e 95ec e0bd
00000080: c273 9c3e 86d9 44bd f710 2fbe ece4 b43d
00000090: 5ef1 453e 9c00 6a3d 85a3 7e3e f084 0f3e
000000a0: a265 72be d8d3 a3be e15e 92be 6a77 043e
000000b0: d526 8cbd dab2 2b3c 8bd9 913e ad30 10be
000000c0: c659 34be c1c2 42bd c365 00be c6dd 983e
000000d0: 70ac 2bbe e291 7bbe c73c 99be 1e6e 393e
000000e0: 6cb4 45be eab4 c93d 1576 5fbe f64b 423e
000000f0: bf86 83be cb45 8f3e 854a 873e 6808 8ebe
00000100: 2096 7ebe 039d c03e 036c 9fbe bc6f d53d
00000110: ad48 b03e 8d4b 29bc 47e9 363e 0e24 03bd
00000120: b25e c53d b043 3cbe 9f08 ba3e 2339 d23e
00000130: 57e4 8a3e aee5 24be 2263 cb3e fdf7 4abd
00000140: f1b5 16be 1d02 8bbe 8031 8bbd 3069 513e
00000150: c67d 703d ccf5 1e3e 6a7e c83e f3df 723e
00000160: 1cb0 ce3e 99e5 303e c29e 8bbe 461d b1be
00000170: 4719 6ebe b981 203e ce1e 49bc 1451 c13d
00000180: 4736 433e 77ef 9cbd 815f 8c3e 9d01 043e
00000190: 67c4 ab3e 1df5 5d3e 2cd3 993c 8ca3 4b3d
000001a0: a6fb 31be 5e91 2bbe 4970 5ebe c255 12be
000001b0: 77c1 673d 5cd0 be3e 8a57 5abe 1310 9dbe
000001c0: 5ffb 96be 111a 0abe 674f 1bbd 618f 403e
000001d0: 1974 313e f454 cbbd 8f84 c73e 3ba2 a93e
000001e0: f4b4 1f3d c9aa 573e f9b9 01bd 25f6 c23d
000001f0: b928 73be 8dbd 843d b442 db3d 1201 9cbd
00000200: df31 abbe f1ec fc3d e367 c03e 36ee be3d
00000210: fa67 d23d 922d 583e 559a aabd fe8c 623e
00000220: aad7 97be f73d 0a3e db5c 2ebd ab8c 0b3e
00000230: 3453 67be 883a 513e 37fe c03e a23a 2b3d
00000240: 5260 a63e 6cfb 29be b1f2 333e 4c68 7e3e
00000250: 047f 6e3e deac 473c 4ebb a9bd 61a3 8d3e
00000260: 7b6d 5c3e 4ee4 70bd a928 173c 6ac7 4e3e
00000270: 57f9 51bd 4098 86be 1a89 833e 3f15 abbe
00000280: aa79 04be 5b49 4a3e a9bb 64be 7047 04bb
00000290: 0ddb 32bd a239 bb3c 5302 b1bd 4e63 a93d
000002a0: 1938 7cbe 32c1 563d 9c63 7fbe 7a5d e63d
000002b0: 370c a23e 7e6d 26be ed95 0b3e d090 963e
000002c0: acc8 09bc d25d 98be 16a5 653d f92c 9fbe
000002d0: 4276 bd3d c054 553d dfce 713e e078 ae3e
000002e0: 7ded 5dbe 92c5 17bd b6d5 73be 7d81 f4bd
000002f0: aea0 bf3e c0a2 c23d 91d4 4cbc 3b53 2ebe
00000300: da2e 66be e12f 82be 0864 11be def7 55be
00000310: fdf5 ad3d efc0 c5bd 48f8 913e 5543 58bd
00000320: 3022 a73d a6f5 aebe 4305 973e 77f6 8d3e
00000330: 3fb3 f3bd 28ca 5bbe 4459 32be 4b3a 243d
00000340: 56ac 853e 6123 c03e a700 fa3b b0fd b4bd
00000350: 3623 af3e 22af e1bd 547d 30be 45a5 dcbd
00000360: 686e a2be 1908 3bbe 3d24 7f3e d145 0bbe
00000370: 1172 4bbe 3c98 cbbd 2854 573e 8b35 bb3a
00000380: be93 873e 7acd 783d 36a8 d13e ce23 f93d
00000390: 13b1 b0bd 481e 813e 40b9 423e e6bd 423c
000003a0: 44c8 56bb 69c1 61be 14d5 d5bd 85b7 73be
000003b0: 933c 89be 5af7 803c ffc8 593e 4bef 2cbe
000003c0: f8e8 56be 51cc 50be 53cc e9bc bc37 c0bd
000003d0: 4043 d9bd e338 543e 575e 173e fe6e 453e
000003e0: 24cb fb3d 3b6a 8f3e 11f6 4e3e d4d3 b33e
000003f0: ed3f 283e 1a09 c33e dc11 b33e 0bd0 8cbe
0.32199708 -0.18351947 -0.24197477 -0.02613856 -0.022000317 -0.08116173 -0.10043357 -0.007504358
-0.22845006 0.034923505 0.2662679 0.08296158 -0.054625604 0.42969662 0.14740047 0.37621018
-0.08138019 0.342797 -0.19530085 0.25139907 0.25396702 -0.30097902 -0.22301528 -0.29229885
0.12020007 -0.2805713 0.028880967 0.37314707 0.26526514 0.15273531 0.1910804 -0.109826244
0.30557066 -0.04805901 -0.17096315 0.08832726 0.19330356 0.057129487 0.24867065 0.14015555
-0.23671582 -0.3199756 -0.28588012 0.12936178 -0.06843344 0.010479653 0.28486285 -0.14081068
-0.17612371 -0.047549013 -0.12538819 0.298567 -0.16764998 -0.24567369 -0.29929182 0.18108413
-0.19307107 0.0984896 -0.21822388 0.1897429 -0.2568874 0.27982935 0.2642404 -0.27740788
-0.24861956 0.3761979 -0.31137094 0.10421702 0.34430447 -0.010332954 0.17862426 -0.032016806
0.09637202 -0.18385196 0.36334702 0.41059217 0.27127334 -0.16103241 0.3972407 -0.049552906
-0.14717843 -0.2715005 -0.06796551 0.20450282 0.058713697 0.15523452 0.39158946 0.23718242
0.40368736 0.17275085 -0.2726956 -0.34592646 -0.2325183 0.15674485 -0.012275411 0.094392926
0.19063674 -0.07662862 0.27416614 0.1289124 0.3354828 0.21675535 0.018777452 0.049716517
-0.17381153 -0.16754672 -0.21722521 -0.14290527 0.056580987 0.3726834 -0.21322456 -0.30676326
-0.29488656 -0.13486506 -0.03791752 0.18804695 0.17329444 -0.09928313 0.38968322 0.33131585
0.03899093 0.21061243 -0.031671498 0.095196046 -0.23746003 0.064814664 0.10706082 -0.07617392
-0.33436486 0.123498805 0.3757926 0.09322779 0.10273738 0.21111134 -0.08330218 0.22124097
-0.29656726 0.135002 -0.042569023 0.1362788 -0.22590333 0.20432484 0.3769395 0.041803963
0.32495362 -0.16599816 0.17573048 0.24844474 0.2329064 0.012187211 -0.08287679 0.2766371
0.21526138 -0.05881148 0.009226003 0.20193258 -0.05126318 -0.26288033 0.25690538 -0.33414647
-0.12937036 0.19754545 -0.22337212 -0.0020184182 -0.043665934 0.02285463 -0.086430214 0.08270894
-0.24630775 0.05243034 -0.24940342 0.11248298 0.31649944 -0.16252705 0.13631411 0.29407358
-0.00840966 -0.2975908 0.05606564 -0.31089 0.092510715 0.052082777 0.23614071 0.34076595
-0.21672626 -0.037053652 -0.23811993 -0.119387604 0.37427276 0.09503698 -0.012501852 -0.17023937
-0.2247881 -0.25427154 -0.14198315 -0.20895335 0.08494184 -0.0965594 0.28509736 -0.052798588
0.081608176 -0.3417179 0.29496202 0.277271 -0.11899423 -0.21463835 -0.17416865 0.040094655
0.26108044 0.37526992 0.0076294723 -0.088374496 0.3420655 -0.11019732 -0.17235309 -0.1077371
-0.31724858 -0.18264808 0.24916168 -0.13600852 -0.19867732 -0.09941146 0.21028197 0.0014282925
0.26479906 0.060742833 0.40948647 0.12165032 -0.08627524 0.25218415 0.1901598 0.011886096
-0.0032773176 -0.22046436 -0.10441032 -0.23800476 -0.26804027 0.015742946 0.2126808 -0.16888158
-0.20987308 -0.2039044 -0.028539812 -0.093856305 -0.1060853 0.20724826 0.14782082 0.19280621
0.122946054 0.28010735 0.20211054 0.3512255 0.16430636 0.3809288 0.34974563 -0.27502474

conv1.bias f4 [64]
00000000: ef94 8d3e cb0d 45be b60d b63e 0da4 a03d
00000010: 3adb 3f3e e48b 423e 9477 523e 92e7 2cbd
00000020: 9c3e 07be 66b9 7a3d 5fd6 c83e 2b0e 44bd
00000030: 9182 a1bd 9a5d 0ebd 6475 57be 21a8 98bc
00000040: cf4c 6dbe d298 ac3e 2da2 e53e 09ef 2bbe
00000050: 2cc4 2bbe f667 ff3e 95bb 863e 0475 e1bd
00000060: 2c86 833e 1253 433d a831 c83d 03e8 583b
00000070: fc57 233d 532d 273e f759 28be b2a2 81bd
00000080: 91b0 733c 94ef af3d 4353 12be dc14 ad3e
00000090: 4a17 b93e 5b5d 8bbd 246d 683e 8967 053d
000000a0: 3147 b73e 0264 18be bc79 c2bd 55be a4bd
000000b0: a867 86be 6ad4 85be 34a9 46bd d131 d33e
000000c0: db19 87be 33a0 53be 2940 8abe 7e62 323e
000000d0: 09a1 30be 0d70 7e3d 7316 0b3e 7b1e 7bbe
000000e0: a522 8f3d 637e d33d 2e4f 6abe b609 5e3e
000000f0: 9ff1 14bd cbb8 a73e 753a 1d3e 78eb 66be
0.2765269 -0.19243543 0.35557336 0.0784379 0.18735972 0.18998677 0.20553428 -0.04221303
-0.13207477 0.061211966 0.39226052 -0.047865074 -0.07886232 -0.034757234 -0.21040875 -0.018634858
-0.23173831 0.33710343 0.44850293 -0.16790403 -0.16774052 0.49884003 0.2631499 -0.11008647
0.25688303 0.047686644 0.09775096 0.0033097274 0.03987883 0.16325884 -0.16440569 -0.0632986
0.01487364 0.08590618 -0.14289574 0.33804977 0.3615058 -0.068049155 0.22697884 0.032569442
0.35796502 -0.148819 -0.09495875 -0.080441155 -0.26250958 -0.26138622 -0.04850121 0.41248944
-0.26386914 -0.2066658 -0.27002075 0.17420384 -0.1724893 0.06211858 0.13582782 -0.24523346
0.0698903 0.10326841 -0.22881767 0.21683392 -0.03636324 0.32758173 0.15354331 -0.22550762

conv2.weight f4 [128, 64, 3, 3]
00000000: 298c 87bb f4e7 f4bc 963f a43d 685f 23bd
00000010: 809a 4d3c b03b 353d 5e08 8bbd 6588 0dbc
00000020: 85f2 e2bb 92da c13c 6e85 70bc 74f8 43bd
00000030: a3fc d33b 4036 ff3c 3f7f 1c3c 9349 f2bb
00000040: 84f4 4c3d 9ca4 bcbc 00aa fcbd e433 ddbb
00000050: ff2a 853c 581c eebd 5dbc 69bd 5ff9 ae3b
00000060: 9ca4 b0bd e64d 6dbd 2ba4 503c fe5f 853d
00000070: 06c0 22bc b535 c0bc a06d 053d 24a4 f9bc
00000080: b1d2 12bd 12a9 473d 6f54 d3bc 4147 fcbc
00000090: f71f 16bd 2b8e 2f3c 8ef1 803d e7e5 8b3b
000000a0: b892 4c3d 2077 59b9 9c41 93bd ddc8 81bc
000000b0: 1769 1abd a96d 26bd 3ef0 773d 81c8 0f3d
000000c0: d23c b1bc f525 123d 1f7e a43b 7ba7 9e3c
000000d0: e59e db3c a938 78bc 13ef 6dbd 8eee 9dbd
000000e0: c61f 52bd 7213 27b9 f3f1 74bd 2e57 04bd
000000f0: 27cf 99bc cb30 2bbd ce3a cebc 439f 053d
00000100: 5112 30bd 7dfb 01bd 403a 38bd a762 20bd
00000110: f80f 6ebd 0eab 34bd 1677 10bd 0147 bb3b
00000120: 3262 353d 8f6e d0bb 5de1 a73c 1a48 043d
00000130: d972 b43b 68dd a9bc 88e2 3abc 0a85 f73b
00000140: 4424 08bd a6c1 b43c dc28 17bd 6cdc 38bd
00000150: 7f69 4f3d 1349 cc3c 0690 0c3c 0b8c 103d
00000160: 50ea 4b3b d83b 733b f3d8 b2bd 0fe3 69bd
00000170: 01c0 d73c 7651 cdbc 68e0 13bd 39fd 263d
00000180: bbaf 953c b23f 2b3c 494a 613c 114f 98ba
00000190: 0889 0c3d ce17 993c 4e7a abbd 851c 3fbc
000001a0: ed98 08bc c325 d5bd 2fd5 d6bd f7e9 01bd
000001b0: a094 9fbd 7a9a 863a e61b 443c 9725 8fbd
000001c0: f7e5 6cbd 72df 633c 2708 dfbd 8916 d6bb
000001d0: b01d e9bb 18a3 1c3d f488 e93c 2574 6c3c
000001e0: e0d1 073d 0b47 0dbd a775 e0bc ec3d df3c
000001f0: 6c41 0dbd 9915 38bc 47ec 2e3c ceb4 173d
00000200: e8bf f2bc 0a55 66bc cd18 ff3c 5b77 04bd
00000210: 8501 9a3c c422 213d af0d a33c 58e1 0abc
00000220: 2473 77bc c2ee c1bb ebb3 6dbb 90c2 debb
00000230: 2d49 253d ba44 f03c f817 3e3b c702 143d
00000240: ee45 63bb 7a15 3a3d c7d5 b93a 5815 e83c
00000250: 816c 01bd bece 46bd 3ae0 783d cf27 45bc
00000260: 0834 0ebd 2904 f1bc 83f0 9bbd 3584 afbc
00000270: b904 a3bd 8acb cebc 6dc2 b73c 2ace cfbc
00000280: 014d 87bd 9711 ae3c 9f96 01be 7866 24bd
00000290: fdf1 04bd c097 ffbd d1e8 f93b 4f63 293d
000002a0: 4d3f d4bd f54a 1cbc e79a 8e3c de3b 1bbc
000002b0: 74ac ecbb a22d 0dbc 8bbc 42bd 4a87 c83c
000002c0: d2a8 e2bc ae09 b9bb 5273 3dba 9113 ce3c
000002d0: 2336 ee3c e5ed cebc 6beb bdbc a7dd d5bc
000002e0: 46e6 45bd 043e 31bd 1bc1 0a3c 35fb 94bc
000002f0: aaf3 e13c f1d1 c8bd 48d3 33bd 94e7 b2bb
00000300: 7207 98bd 31eb 86bc ab39 4c3d fd94 0fbe
00000310: bee5 50bd 3f70 11bd 8e5a 13bd db36 39bd
00000320: 35c0 18bd 9457 a73c 8dd0 2bbc 858f 9bbb
00000330: b818 5bbc 2c66 43bd fca4 b0bc ff65 c8bb
00000340: 515e 80ba 8b8f 8fbd a2de 6dbc 58c8 33bd
00000350: c02a 85bd 8c42 5fbd 0895 0cbd 8ded 79bd
00000360: fa81 aebd 339f bcbd ced7 abbd 276c 7bbd
00000370: e124 84bd 1513 05bd 6cd4 cebd ce43 e23b
00000380: 6d1e 2f3d 4a34 823d 9954 e53c 8f65 08bd
00000390: a2c2 c4bb b149 223d 044d 9abc ee63 0cbc
000003a0: a4a4 0d3c 69e0 7fbd 9de5 fd3a cd75 6ebb
000003b0: 4ff6 e13b 8bea d6bc b6fa e53c 5d95 adbb
000003c0: 9339 94bc 3360 f63c 49c9 9a3b 8a22 993c
000003d0: 3cd8 a93c c888 81bd 85c4 e4bb b9a0 92bc
000003e0: 480c 47bd d9c3 76bc bbc4 03bc b318 f03b
000003f0: 72d8 f93c 8e7e 12bd 49d0 0b3c 5d92 1a3c
-0.0041365814 -0.02989576 0.080199406 -0.03988591 0.012549043 0.044246376 -0.06788705 -0.008638476
-0.0069258832 0.023663793 -0.01468025 -0.047844365 0.0064693256 0.031153798 0.009551822 -0.0073940246
0.050037876 -0.02302771 -0.123371124 -0.0067505706 0.016255854 -0.116265 -0.057064403 0.005339786
-0.08625147 -0.057935618 0.012734453 0.0651245 -0.009933477 -0.02346311 0.03257525 -0.030473776
-0.035845462 0.048745222 -0.025797097 -0.030795695 -0.036651578 0.010715048 0.06296073 0.00426935
0.04994461 -0.0002073911 -0.07190248 -0.01584285 -0.037697878 -0.040631924 0.060531847 0.035103325
-0.021635447 0.03568073 0.0050199176 0.01936697 0.026809165 -0.015150228 -0.058089327 -0.07711516
-0.051299833 -0.00015933605 -0.059801053 -0.032309704 -0.018775536 -0.04179458 -0.025174525 0.032622587
-0.042986218 -0.03173398 -0.044977427 -0.039156582 -0.058120698 -0.044108443 -0.03526982 0.0057152514
0.0442831 -0.006360836 0.020493204 0.032295324 0.005506855 -0.020735458 -0.011406548 0.0075537013
-0.03323771 0.022064995 -0.0369042 -0.045132086 0.05063772 0.024937188 0.00857926 0.035289805
0.0031115003 0.0037114527 -0.08732786 -0.057101306 0.026336672 -0.025063258 -0.036102682 0.040768836
0.018272271 0.010452198 0.013750621 -0.0011620243 0.03431037 0.018688109 -0.08372937 -0.011664514
-0.008337242 -0.10407593 -0.1048988 -0.031717267 -0.0779202 0.0010269426 0.011969542 -0.069895916
-0.0578365 0.013908254 -0.10890227 -0.006533448 -0.0071141347 0.038241476 0.028507687 0.014431988
0.033159137 -0.03449158 -0.027399851 0.027251206 -0.03448622 -0.011235618 0.01067645 0.037037663
-0.029632524 -0.014058361 0.031139756 -0.03234039 0.018799553 0.039339796 0.019903986 -0.008476578
-0.015103135 -0.0059183547 -0.003627057 -0.006798096 0.04035299 0.029329646 0.0029005986 0.03613546
-0.0034679133 0.045430638 0.001417809 0.02833049 -0.031597618 -0.04853701 0.060760714 -0.012033417
-0.03471759 -0.029420929 -0.07614233 -0.021425346 -0.07959885 -0.02524354 0.022431577 -0.025366861
-0.06606484 0.021248622 -0.12655114 -0.040136784 -0.03245734 -0.12480116 0.007626631 0.041354474
-0.10363636 -0.0095393555 0.017407848 -0.009474723 -0.0072227065 -0.008616837 -0.04754309 0.024478573
-0.02766839 -0.005646906 -0.0007226962 0.025155814 0.029078549 -0.025259921 -0.023183545 -0.026106669
-0.04831531 -0.043272033 0.0084688915 -0.018186191 0.027582008 -0.09805668 -0.043902665 -0.005459735
-0.07423295 -0.01646957 0.049859684 -0.14021678 -0.05100035 -0.035507437 -0.03597503 -0.04521833
-0.037292678 0.020427503 -0.010486734 -0.0047473335 -0.013372593 -0.04770486 -0.021563046 -0.0061156745
-0.0009793733 -0.070098005 -0.014518412 -0.043892235 -0.065022945 -0.054506823 -0.034321815 -0.06101756
-0.08520885 -0.09210052 -0.08390771 -0.06138244 -0.064523466 -0.0324889 -0.1009911 0.0069050556
0.042753626 0.063576296 0.02799444 -0.03329998 -0.0060046474 0.03962106 -0.018835552 -0.008568747
0.00864521 -0.062469874 0.0019370798 -0.0036386133 0.0068958174 -0.026234886 0.02807365 -0.0052973465
-0.01809386 0.030075168 0.004723702 0.018693227 0.020732991 -0.06324917 -0.0069814348 -0.017898904
-0.048595697 -0.015061342 -0.00804251 0.007327163 0.030498717 -0.035765223 0.008533546 0.00943431

conv2.bias f4 [128]
00000000: dd93 82bc 4a9a 5dbb 2cc1 81bc b77c 043d
00000010: d86f 8b3d d919 813d 8206 0dbd 4483 2e3d
00000020: 13c6 a03c 05d3 48bc 1a5a 12bd 0ea4 18bd
00000030: eea7 b13c 8aed 933c 70a6 fdbc 6e74 da3c
00000040: aa21 5e3c a7bc 5abc ec2a 613b 645a 463d
00000050: c207 5a3d 6fbe c8bc 271a 4b3d 29b2 2a3d
00000060: a487 e93c e62a 813c a83d ce3c 4b32 2cbc
00000070: 9c9e 35bc 7826 68bd ff23 1dbd a85a d63c
00000080: 7b65 183c 2454 183d 1559 103b 110b 953c
00000090: c13c 303c 38b8 f83c a2ca 5a3c bc58 c1bb
000000a0: c210 87bd 43ff 373c 760b 263d 261a 123d
000000b0: 2c82 8ebc ada7 253d cad5 dc3b c644 e13b
000000c0: 1cba 0a3c ba65 dcbb 98f1 293d b1be 593c
000000d0: bdcc 28bd 1351 c93c 7f29 653d 4ad4 543c
000000e0: f4de 8d3c 7cb5 3f3c 737f d8bc 8403 62bc
000000f0: 0e76 bd3b 66cf 17bc 20f4 0bbd 32d5 653b
00000100: 4e4b 243d e4b2 923c 8590 ccbc f069 59bb
00000110: 44e2 1b3d c178 f13c d3ca 073d 48bd fdbc
00000120: fc7d 16bb be97 80bc 5cd8 d2bb 6746 8d3d
00000130: 3bb6 c5b9 d9f5 4cbd a463 203c d14b 933c
00000140: f938 383c 2266 9bbc b2be 1cbb bc45 38bd
00000150: 6a5a 02bc cad5 873d 0b4e 23ba 5b74 cebc
00000160: 14a9 26bd 50c1 d2bc 9332 adba 40ed f2ba
00000170: a9b0 23bb aaa4 43bd 706c ff3b 24fb 56bc
00000180: 5628 643d f990 b83b 8058 9a3c 5b3c a0bc
00000190: 8629 36bc 5a73 1fbc a9f1 06bd 3c6b a23d
000001a0: cafb 8cbc 39a7 50ba d4f2 c63b b0fb e03c
000001b0: dd6b d23c 9ca3 2d3d e04d bfba 8f3f 8c3c
000001c0: 8998 ba3b 5483 e63a d99d 983c 1e3e a6b7
000001d0: 9fa0 bbbb 5f76 d4bc e018 5a3d ae71 113c
000001e0: 1f49 783c d95d f2bc f287 16bd 533e 013d
000001f0: 3ca0 b2bc 9dab 26bd 3b09 2f3b 976c f4bc
-0.015939647 -0.0033813887 -0.015839182 0.0323455 0.06808442 0.06303758 -0.034430034 0.042605653
0.0196257 -0.012257342 -0.03573046 -0.03726583 0.02168652 0.018057603 -0.030963153 0.026666846
0.013557831 -0.013350642 0.0034357859 0.048426047 0.053230055 -0.024504868 0.049585488 0.041673813
0.028507061 0.015767526 0.025175884 -0.010510038 -0.011085179 -0.05667731 -0.038364407 0.026166275
0.009301539 0.037189618 0.0022025753 0.018193753 0.010756672 0.03036128 0.0133539755 -0.0059004705
-0.06594993 0.011230293 0.040538274 0.03566947 -0.017396055 0.04044311 0.006739353 0.0068746535
0.0084672235 -0.006725994 0.041490167 0.013290093 -0.04121088 0.024574792 0.055947777 0.012990067
0.017318226 0.011700984 -0.02642796 -0.0137947835 0.0057818955 -0.009265756 -0.034168363 0.0035069701
0.04011088 0.017907567 -0.024971256 -0.0033174716 0.03805758 0.029476525 0.033152413 -0.030974045
-0.0022963276 -0.015697356 -0.0064344835 0.06898194 -0.0003771054 -0.050039146 0.009789381 0.017980488
0.011244052 -0.0189696 -0.0023917374 -0.04498838 -0.007956127 0.06632574 -0.0006229586 -0.025201967
-0.04068859 -0.025726944 -0.0013213925 -0.0018533841 -0.0024977124 -0.047764458 0.007794909 -0.0131214
0.05570253 0.0056325165 0.018841028 -0.01956003 -0.011118298 -0.009732092 -0.03294531 0.079306096
-0.017209906 -0.00079594884 0.006071428 0.027463764 0.025686199 0.04239236 -0.0014595352 0.01712015
0.005694453 0.0017586746 0.018629955 -1.9817668e-05 -0.0057259346 -0.02593535 0.05324638 0.008877201
0.015154152 -0.029585766 -0.03675074 0.031553578 -0.021804921 -0.040691007 0.0026708383 -0.029836936
