checkpoint3/rpn.pth (torch_old, 619351 bytes, 6 tensors)

conv.weight f4 [128, 128, 3, 3]
-0.020689256 0.008032574 0.012352737 0.01432096 0.0020201695 -0.004031003 -0.02241444 -0.0076755714
-0.019362973 0.016292 0.0075300033 0.0102567095 0.023293579 -0.010099149 -0.024271311 -0.010984256
-0.025820073 0.025863666 0.027821241 0.0010555414 -0.004431391 -0.022427952 -0.02504025 0.0074927206
-0.020001752 -0.010289468 -0.013862248 0.006770972 0.013184177 -0.026377868 0.00031519358 0.016236888
0.011509695 0.007039963 0.00974626 0.019505644 -0.022102643 -0.0041227494 -0.022412835 -0.026098264
0.016410233 -0.011829355 -0.013848687 -0.014284677 0.020365192 0.01865508 -0.031035932 0.020304374
-0.014535176 0.01078429 -0.029692601 -0.0057834685 -0.024389723 -0.0011288772 -0.011770693 -0.0042499164
-0.015996812 0.009742389 -0.013305656 -0.011957036 0.014295768 0.017099671 0.01257173 -0.018775202
0.023841355 -0.006103839 -0.0046356525 -0.018606735 -0.0255294 -0.016912702 0.005235133 -0.013182211
0.020157065 -0.022969717 -0.010108952 0.020531505 -0.012448641 -0.021987032 -0.027946806 -0.012472588
-0.02431171 0.020269448 -0.0064232787 -0.008798263 0.015978284 -0.024707232 0.0053336187 -0.013543873
0.009294849 -0.028468855 0.019792961 -0.026875451 0.0023126837 -0.00124299 -0.006650113 -0.024601048
-0.021204408 0.0043459064 -0.005859194 0.023623465 0.02154212 -0.0074128225 -0.0135986535 0.00428286
0.02785284 0.0048567103 -0.023134306 0.014612043 0.01370106 -0.0148770055 -0.0038741636 0.0019716255
0.016343575 -0.005125912 -0.03017334 0.008878099 0.021203669 0.0025376868 0.0043708393 -0.013461929
0.018777803 0.026714204 -9.020523e-05 -0.029380865 -0.026185164 -0.022567347 0.016890705 -0.007961806
0.01237512 -0.027946778 0.007956742 0.003170409 0.027132405 0.011289098 -0.021229947 0.0014945436
0.013557125 0.0026523783 -0.019269038 -0.010529789 0.014425281 0.015738904 0.018497562 -0.022390494
0.019554077 -0.021062732 0.017907437 0.021861257 0.010842918 0.020115865 0.01462572 -0.027700812
0.0022670869 0.010213403 0.024900168 0.0257741 -0.019898688 -0.016794056 0.023524098 -0.0017256889
-0.003338675 0.026627462 0.025292482 0.001837236 -0.010781896 0.01473615 0.013073473 0.010186784
0.028722024 -0.024361536 0.016118117 0.020943599 -0.02224955 -0.011199978 0.027174274 -0.009273108
-0.024121942 0.005954766 0.0012980337 -0.009684052 -0.027883656 -0.010769097 -0.0006712562 -0.0019339311
0.016501375 -0.02418395 0.0062713013 -0.019670574 0.026321795 -0.018303854 0.028820138 0.0037313944
0.013837421 0.020820996 -0.0039827507 0.023294985 0.0051227696 -0.004437431 0.019630948 0.002287714
0.0017698332 -0.013693066 0.012147467 0.0244327 -0.025443014 -0.0080362875 -0.014078359 0.013297153
-0.023100646 0.007118448 0.023150476 0.010334904 0.024690874 -0.016688008 -0.005457443 -0.021137513
0.009898997 -0.024796126 -0.0067480393 -0.006930252 -0.024047064 -0.022884218 0.023624845 0.021229953
-0.019027207 0.023687659 -0.027662273 -0.02905133 0.005854097 0.010825763 -0.030960917 -0.004022778
-0.0019008032 -0.02626036 -0.019505423 0.020107929 0.0062020137 -0.009867071 -0.006468632 -0.0046865335
0.022803448 -0.0054572267 -0.007083282 0.003759572 -0.02308148 0.0059925676 0.024554979 0.00326868
0.014914983 -0.011004522 -0.008679389 0.014154213 -0.02329326 0.029240096 -0.02021456 0.026155302
00000000: 847c a9bc 0f9b 033c 2263 4a3c 76a2 6a3c
00000010: d264 043b 8116 84bb 7d9e b7bc 5c83 fbbb
00000020: 199f 9ebc cd76 853c 3fbe f63b c20b 283c
00000030: 2dd2 be3c e776 25bc a1d4 c6bc 4ff7 33bc
00000040: 9e84 d3bc 0ae0 d33c 5fe9 e33c 185a 8a3a
00000050: 3435 91bb d3ba b7bc 3621 cdbc 7f85 f53b
00000060: b7da a3bc 2895 28bc 7b1e 63bc 08df dd3b
00000070: 7202 583c 6616 d8bc 9140 a539 3903 853c
00000080: 2993 3c3c 7daf e63b c7ae 1f3c 4dca 9f3c
00000090: 9a10 b5bc 2118 87bb 1f9b b7bc 07cc d5bc
000000a0: c16e 863c e9cf 41bc 9ae5 62bc 470a 6abc
000000b0: e7d4 a63c 8ad2 983c 113f febc 5c55 a63c
000000c0: f224 6ebc 97b0 303c e63d f3bc 4083 bdbb
000000d0: f5cc c7bc d5f6 93ba ddd9 40bc e242 8bbb
000000e0: bf0b 83bc 8b9e 1f3c f7ff 59bc 72e7 43bc
000000f0: cc38 6a3c 9c14 8c3c a8f9 4d3c 74ce 99bc
00000100: f24e c33c b602 c8bb ace6 97bb 276d 98bc
00000110: 0823 d1bc 828c 8abc 7b8b ab3b 33fa 57bc
00000120: 6e20 a53c fd2a bcbc 05a0 25bc b031 a83c
00000130: 62f5 4bbc 261e b4bc b3f0 e4bc d359 4cbc
00000140: 5a29 c7bc 1d0c a63c 5e7a d2bb 9726 10bc
00000150: e4e4 823c d266 cabc a3c5 ae3b 1fe7 5dbc
00000160: 6c49 183c 8437 e9bc d924 a23c e829 dcbc
00000170: 6590 173b d3eb a2ba 31e9 d9bb 2388 c9bc
00000180: deb4 adbc 1b68 8e3b 7bfe bfbb ff85 c13c
00000190: 1a79 b03c 43e7 f2bb e3cc 5ebc 3c57 8c3b
000001a0: a42b e43c 0a25 9f3b 2884 bdbc 5a67 6f3c
000001b0: 697a 603c afbe 73bc aee5 7dbb 6336 013b
000001c0: f6e2 853c 44f7 a7bb 152e f7bc 7275 113c
000001d0: 51b3 ad3c 524f 263b 4239 8f3b 6c8f 5cbc
000001e0: e8d3 993c bfd7 da3c 902c bdb8 24b0 f0bc
000001f0: 4582 d6bc 28df b8bc 605e 8a3c 3c72 02bc
00000200: 04c1 4a3c a4f0 e4bc ff5c 023c a3c6 4f3b
00000210: c744 de3c e9f5 383c 6dea adbc 90e4 c33a
00000220: b41e 5e3c 86d3 2d3b 1ada 9dbc 2385 2cbc
00000230: 0458 6c3c e0ee 803c 3388 973c 456c b7bc
00000240: df2f a03c c08b acbc 9eb2 923c 6116 b33c
00000250: 7fa6 313c 07ca a43c b7a0 6f3c d0ec e2bc
00000260: 6893 143b 1e56 273c 70fb cb3c 3524 d33c
00000270: 9302 a3bc b093 89bc 9cb5 c03c 8330 e2ba
00000280: accd 5abb d621 da3c 2e32 cf3c 69cf f03a
00000290: 8da6 30bc e56f 713c 1f32 563c 78e6 263c
000002a0: 734a eb3c d891 c7bc 240a 843c e991 ab3c
000002b0: b044 b6bc 1d80 37bc 959c de3c 3cee 17bc
000002c0: 619b c5bc 3320 c33b c922 aa3a dca9 1ebc
000002d0: 446c e4bc de70 30bc 3ef7 2fba f67b fdba
000002e0: e42d 873c 6b1d c6bc 7d7f cd3b 2f24 a1bc
000002f0: cea0 d73c f7f1 95bc 3618 ec3c 698a 743b
00000300: 5ab6 623c cb90 aa3c bc81 82bb 20d5 be3c
00000310: e8dc a73b df67 91bb 15d1 a03c 79ed 153b
00000320: bff9 e73a e258 60bc 2b06 473c 1627 c83c
00000330: de6d d0bc a2aa 03bc eba8 66bc 4ddc 593c
00000340: 913d bdbc df41 e93b 11a6 bd3c bb53 293c
00000350: 8444 ca3c 4ab5 88bc 5ad4 b2bb 9428 adbc
00000360: 672f 223c 3f21 cbbc a81e ddbb 2b17 e3bb
00000370: 59fe c4bc af77 bbbc e488 c13c 70ea ad3c
00000380: f2de 9bbc 9f0c c23c fe9b e2bc 0efd edbc
00000390: bad3 bf3b 8b5e 313c c0a1 fdbc 82d1 83bb
000003a0: 5f24 f9ba f71f d7bc d6c9 9fbc 62b9 a43c
000003b0: 433a cb3b 7fa9 21bc d1f6 d3bb 7e91 99bb
000003c0: 4cce ba3c 89d2 b2bb e01a e8bb 2763 763b
000003d0: 5f15 bdbc 4d5d c43b 8627 c93c 5a37 563b
000003e0: f95d 743c 504c 34bc ff33 0ebc 12e7 673c
000003f0: 82d1 bebc ed88 ef3c 0199 a5bc a543 d63c

conv.bias f4 [128]
-0.02776538 0.027697481 0.0024193851 0.0045741447 0.015052443 -0.037052013 -0.04034817 0.00424611
0.01728469 0.050368726 0.017916238 -0.01858904 -0.03264007 -0.027445016 -0.033856172 -0.0076593063
0.015411767 -0.03228959 0.030533325 -0.02893113 0.0013181902 -0.01710178 0.036678255 -0.016430276
0.019748153 0.017752094 0.02640576 0.040585045 0.020261528 -0.04736542 0.03536672 -0.012200847
-0.00446967 0.016960258 -0.03241903 -0.016007949 -0.024061328 -0.016401934 0.0036767186 0.0374895
0.015097792 -0.03124897 -0.0064103515 0.031428885 -0.04462933 -0.024391888 -0.016525786 0.028775685
0.03194592 -0.008327493 -0.028814703 0.019596893 0.008442723 0.05761597 0.05826524 -0.00605965
0.05038687 0.032846034 -0.047578845 0.06778984 0.015245056 -0.052982274 0.068453014 -0.039745387
0.0153221395 -0.060672134 -0.009619743 0.03783155 0.027441729 0.0237585 -0.0076520145 0.038077373
-0.014929327 -0.017663157 -0.0016416494 0.025583288 -0.030174188 -0.025239863 0.001582341 0.016088918
-0.055641875 0.012622045 -0.029578207 0.013715294 -0.06838781 0.033609893 0.015354098 -0.010520025
-0.035402894 -0.010547912 0.029576559 -0.000397078 -0.010659366 0.009285641 0.004593754 0.030519756
-0.017589908 -0.011356282 0.007647271 0.021309279 0.020306367 0.02250244 0.0016117318 0.008268366
-0.03501013 0.003905837 0.03191494 -0.004098263 0.026333904 -0.016107885 0.042433754 0.002194628
-0.03196775 -0.009021463 -0.020715913 -0.0672982 -0.00027608004 0.021337906 0.0070117246 0.07377235
-0.00029320043 0.006904433 0.018886697 0.0030718993 0.0077311844 -0.0010667363 0.034835108 -0.0026838079
00000000: 3974 e3bc d4e5 e23c 8c8e 1e3b b5e2 953b
00000010: 869e 763c dac3 17bd 1f44 25bd f422 8b3b
00000020: 9f98 8d3c 704f 4e3d 13c5 923c 0b48 98bc
00000030: 98b1 05bd 5fd4 e0bc c5ac 0abd ebfa fabb
00000040: a381 7c3c 1742 04bd 0621 fa3c fa00 edbc
00000050: 20c7 ac3a 0819 8cbc f03b 163d c998 86bc
00000060: e1c6 a13c d76c 913c e450 d83c 813c 263d
00000070: 81fb a53c 3e02 42bd b2dc 103d 10e6 47bc
00000080: 4f76 92bb 3df0 8a3c d1c9 04bd 1a23 83bc
00000090: 431c c5bc 595d 86bc 1af5 703b 978e 193d
000000a0: bb5c 773c d7fd ffbc ed0d d2bb 93bb 003d
000000b0: 3fcd 36bd 7fd1 c7bc 1661 87bc fcba eb3c
000000c0: bad9 023d 0a70 08bc d00c ecbc aa89 a03c
000000d0: 5953 0a3c b9fe 6b3d 88a7 6e3d 0790 c6bb
000000e0: 7662 4e3d 9089 063d 09e2 42bd 66d5 8a3d
000000f0: 66c6 793c f103 59bd 1831 8c3d 0fcc 22bd
00000100: b609 7b3c 5883 78bd 209c 1dbc 41f5 1a3d
00000110: 7acd e03c 30a1 c23c c0bd fabb 05f7 1b3d
00000120: 239a 74bc 53b2 90bc 9d2c d7ba 0b94 d13c
00000130: dc2f f7bc d4c3 cebc 8e66 cf3a e8cc 833c
00000140: bce8 63bd b2cc 4e3c ff4d f2bc 1db6 603c
00000150: e80e 8cbd 87aa 093d c18f 7b3c 2f5c 2cbc
00000160: a002 11bd 26d1 2cbc 8a4a f23c e82e d0b9
00000170: 9fa4 2ebc cd22 183c 3487 963b 9104 fa3c
00000180: b618 90bc b30f 3abc f595 fa3b cc90 ae3c
00000190: 8a59 a63c 0957 b83c bf40 d33a 0a78 073c
000001a0: c866 0fbd 12f9 7f3b 3db9 023d b94a 86bb
000001b0: 33ba d73c aff4 83bc 04cf 2d3d bfd3 0f3b
000001c0: 9ef0 02bd c2ce 13bc 6bb4 a9bc a4d3 89bd
000001d0: d6be 90b9 d5cc ae3c 9cc2 e53b f515 973d
000001e0: b2b8 99b9 953e e23b 46b8 9a3c eb51 493b
000001f0: e055 fd3b bbd1 8bba 42af 0e3d d3e2 2fbb

conv_reg.weight f4 [36, 128, 1, 1]
-0.0011387244 -0.08041986 -0.067330725 -0.026915662 -0.046243783 0.0024656951 -0.08072272 0.011665076
0.06559106 -0.010504477 0.0030173436 0.076002024 0.024806634 0.08795548 -0.08491704 -0.037621815
-0.017357841 0.0806467 -0.035722803 0.06077694 0.06236259 0.0023994595 -0.03196124 -0.038551323
0.078950755 0.029155448 -0.0068006143 -0.05435247 -0.06710251 0.034516774 0.061755665 -0.041636713
0.056039624 -0.0150668025 0.014147431 0.0052631944 -0.07017064 -0.010829791 0.028949626 0.087602474
-0.0020753294 -0.08024234 -0.078843415 -0.087641485 -0.026427526 0.079419754 0.0005826503 0.07346035
-0.05674993 -0.07211965 6.905943e-05 0.015476726 -0.01820156 -0.020704344 -0.043523196 -0.0161222
-0.035252444 0.033788905 -0.05716186 0.03284006 -0.08109474 0.03219895 -0.045486744 -0.08682107
0.06427517 0.055615522 0.073826306 -0.009724028 0.07753613 -0.023548983 0.053117223 -0.063526355
0.06347611 0.019678898 -0.08808759 -0.028623737 0.07870785 0.084691815 0.0041707605 -0.07314467
0.04999406 -0.060111433 0.014231019 0.04112161 0.057024486 -0.063358724 -0.009783745 -0.07595886
-0.047542013 0.07717008 -0.004178725 -0.07733394 0.01163172 -0.044203203 0.014697999 -0.018301152
0.044057943 -0.08700295 0.015926123 -0.06190136 0.057121597 0.07963426 0.045696177 0.08596241
0.00893724 0.04407189 0.031834863 -0.025355868 -0.023155965 0.040055893 0.07746103 -0.040094003
-0.0098242685 0.019136794 0.061562084 0.065517776 0.03128607 -0.037391346 0.07280863 0.024813347
0.074222006 0.08837003 -0.031125836 -0.062419154 -0.0026178062 0.024676159 -0.010274544 0.07586617
-0.030846149 -0.049650136 -0.0131317 -0.010985553 -0.08004467 0.056759216 -0.0075062364 -0.03749859
0.061019354 0.047479846 0.06333261 -0.026004393 -0.085556164 -0.014128052 0.034410603 -0.01435744
-0.07846584 0.0773833 0.05935047 0.08368806 0.027583212 0.06368338 -0.05537515 0.06901989
-0.018903367 -0.041927464 0.03642395 -0.009879157 0.057692043 -0.03575803 0.023932636 0.041810624
-0.08728079 0.019460998 -0.029417109 -0.07716895 -0.0059395656 0.03582225 -0.013342932 -0.0730099
0.042348526 -0.022275649 0.078080036 0.064428754 0.036436148 0.02513045 0.03132852 0.06743208
0.0883676 0.024916992 -0.06417904 -0.06428238 -0.040810265 0.06948186 0.054667853 -0.030405864
-0.00837066 0.07369416 0.029520802 0.020160735 -0.024190292 -0.071535215 0.060490154 0.04827381
-0.07414568 -0.03763447 -0.062795155 -0.052776136 -0.0682746 -0.006291069 0.08209222 0.055417426
-0.06468422 -0.0046810806 -0.07571968 -0.07578449 0.065724485 -0.018724345 0.016117714 -0.049340356
0.009556577 -0.0077339485 -0.06025818 0.0700968 0.08671523 -0.08441129 -0.03590467 -0.04703976
0.07435123 0.02087368 -0.045745682 0.07168398 0.027593508 0.060881086 0.0070279464 0.08669933
0.0073254034 -0.0027068928 0.0027373359 0.063527055 0.0072631463 0.065024026 0.067634724 0.04704451
0.08368819 -0.027880676 -0.023032926 0.032612577 0.044142686 0.009710088 0.04953844 -0.080984086
0.013783187 0.0082476735 -0.047257923 0.011897199 -0.06830169 -0.03524822 0.0009899214 0.024783976
0.030788347 0.05308398 0.04597471 0.0773663 -0.056546498 -0.056692272 0.06921824 -0.028080031
00000000: 4041 95ba 2bb3 a4bd b1e4 89bd 3c7e dcbc
00000010: 1f6a 3dbd 8097 213b f451 a5bd e01e 3f3c
00000020: 9b54 863d f81a 2cbc a0be 453b f3a6 9b3d
00000030: 4837 cb3c 0122 b43d fce8 adbd 5519 1abd
00000040: 0832 8ebc 192a a53d 1352 12bd 3ef1 783d
00000050: ea6f 7f3d 4040 1d3b cae9 02bd fee7 1dbd
00000060: efb0 a13d 68d7 ee3c b0d7 debb b2a0 5ebd
00000070: 0a6d 89bd 7661 0d3d 82f3 7c3d 428b 2abd
00000080: ce89 653d c0da 76bc a0ca 673c e076 ac3b
00000090: a0b5 8fbd 706f 31bc c427 ed3c ed68 b33d
000000a0: 4002 08bb 1956 a4bd a878 a1bd 617d b3bd
000000b0: 8a7e d8bc d3a6 a23d 00bd 183a 6172 963d
000000c0: 9d72 68bd 78b3 93bd 00d4 9038 1892 7d3c
000000d0: 701b 95bc 289c a9bc 6145 32bd b412 84bc
000000e0: de64 10bd 3c66 0a3d 8e22 6abd 4c83 063d
000000f0: 0015 a6bd 0ce3 033d 4f50 3abd 3fcf b1bd
00000100: b3a2 833d 1acd 633d 3f32 973d 8851 1fbc
00000110: 43cb 9e3d cce9 c0bc 7291 593d 1b1a 82bd
00000120: c3ff 813d a435 a13c 4467 b4bd 547c eabc
00000130: 9531 a13d e772 ad3d e0aa 883b dfcc 95bd
00000140: 92c6 4c3d 6837 76bd 3829 693c 226f 283d
00000150: 8292 693d 38c2 81bd 004c 20bc 5290 9bbd
00000160: 6abb 42bd 590b 9e3d b0ed 88bb 4261 9ebd
00000170: f892 3e3c 6b0e 35bd e0cf 703c 4cec 95bc
00000180: 1a76 343d 9a2e b2bd 8077 823c 488c 7dbd
00000190: 56f8 693d 4917 a33d ea2b 3b3d 0f0d b03d
000001a0: 806d 123c ba84 343d 4665 023d 1cb7 cfbc
000001b0: 94b1 bdbc a611 243d e3a3 9e3d 9c39 24bd
000001c0: f8f5 20bc c4c4 9c3c 8628 7c3d 2f2e 863d
000001d0: d225 003d ab27 19bd b11c 953d 5c45 cb3c
000001e0: b501 983d 59fb b43d 9cfb febc 3aab 7fbd
000001f0: 808f 2bbb a825 ca3c 9056 28bc b95f 9b3d
00000200: 10b1 fcbc f15d 4bbd 5826 57bc c0fc 33bc
00000210: 76ee a3bd 5a7c 683d e0f6 f5bb 1f98 19bd
00000220: 6eef 793d 3a7a 423d 87b4 813d 2a07 d5bc
00000230: 1238 afbd 5879 67bc 22f2 0c3d 783b 6bbc
00000240: b3b2 a0bd 237b 9e3d 7a19 733d a564 ab3d
00000250: 30f6 e13c 6f6c 823d 0ed1 62bd 4d5a 8d3d
00000260: 3cdb 9abc 22bc 2bbd 4831 153d 30dc 21bc
00000270: 7e4e 6c3d 0377 12bd 600e c43c 9e41 2b3d
00000280: 45c0 b2bd ac6c 9f3c 26fc f0bc c10a 9ebd
00000290: b0a0 c2bb 5aba 123d 509c 5abc 3786 95bd
000002a0: a675 2d3d 6c7b b6bc 6de8 9f3d 39f3 833d
000002b0: 123e 153d 60de cd3c 5652 003d d519 8a3d
000002c0: 13fa b43d b81e cc3c 4d70 83bd 7ba6 83bd
000002d0: aa28 27bd 814c 8e3d 66eb 5f3d b815 f9bc
000002e0: 1825 09bc f7ec 963d 9cd5 f13c 2028 a53c
000002f0: b82a c6bc 0e81 92bd 86c4 773d c2ba 453d
00000300: b1d9 97bd 9a26 1abd bf9a 80bd ca2b 58bd
00000310: 8ed3 8bbd 5025 cebb f71f a83d 62fd 623d
00000320: 2979 84bd c063 99bb eb12 9bbd e634 9bbd
00000330: 8f9a 863d cc63 99bc 4c09 843c 1d19 4abd
00000340: 3093 1c3c 106d fdbb 48d1 76bd e98e 8f3d
00000350: c197 b13d d4df acbd c610 13bd c3ac 40bd
00000360: 7545 983d 48ff aa3c d35f 3bbd 0dcf 923d
00000370: c80b e23c 725e 793d b04a e63b 6b8f b13d
00000380: f009 f03b 2066 31bb e064 333b 791a 823d
00000390: b0ff ed3b 512b 853d 1384 8a3d beb1 403d
000003a0: b764 ab3d 0466 e4bc 8caf bcbc c494 053d
000003b0: f6ce 343d 1017 1f3c d2e8 4a3d fcda a5bd
000003c0: e0d2 613c 4021 073c 8691 41bd 78ec 423c
000003d0: c2e1 8bbd 7060 10bd 40c0 813a c407 cb3c
000003e0: d837 fc3c 966e 593d fa4f 3c3d 3972 9e3d
000003f0: 4d9d 67bd 2836 68bd 4bc2 8d3d 1808 e6bc

conv_reg.bias f4 [36]
-0.08316405 0.03716851 0.017419219 -0.009970099 -0.069319725 -0.022916846 0.032254875 -0.028027065
0.06261613 0.032207765 -0.00019977242 0.027953282 -0.024949357 0.015589148 -0.03837597 -0.009016708
-0.032638032 0.0038504733 -0.07537352 -0.03862585 -0.029252883 -0.015586451 -0.04522102 0.088263966
-0.040705245 -0.042893488 0.033889048 -0.0477952 -0.033008568 -0.01055932 0.074165784 -0.022136576
-0.045678753 -0.086498596 0.023208953 0.06466428
00000000: ea51 aabd 023e 183d c0b2 8e3c a059 23bc
00000010: 80f7 8dbd 1cbc bbbc b01d 043d 0499 e5bc
00000020: e33c 803d 4aec 033d 007a 51b9 48fe e43c
00000030: 9862 ccbc a069 7f3c 1f30 1dbd d0ba 13bc
00000040: 75af 05bd 3958 7c3b 6f5d 9abd 2436 1ebd
00000050: bea3 efbc 505e 7fbc ad39 39bd bdc3 b43d
00000060: 8bba 26bd 15b1 2fbd 3ecf 0a3d e6c4 43bd
00000070: fe33 07bd 0001 2dbc 3be4 973d c457 b5bc
00000080: a519 3bbd 2d26 b1bd b420 be3c b56e 843d

conv_cls.weight f4 [18, 128, 1, 1]
-0.013073334 0.028844565 -0.024822826 -0.01316037 0.044611707 0.042146347 0.0055719884 -0.012102685
-0.06325374 0.053820554 -0.011941223 -0.077846915 -0.041690376 -0.06896994 0.0035353997 -0.002309642
0.08690985 -0.10787802 0.04211203 0.07482848 -0.02703832 0.022815669 0.08267378 0.03752021
0.0062275655 -0.04391874 0.016356455 -0.027050208 -0.082780756 0.02298606 0.07955539 0.039769746
-0.014462839 0.037858907 -0.009800431 0.023013156 0.021784106 -0.010354627 -0.029163498 0.044469222
0.07609504 -0.052748352 0.03532913 -0.016518163 -0.007566553 -0.090644084 0.07202078 0.031641126
0.06941484 -0.07683392 -0.024389623 -0.003823056 -0.012413037 0.03758789 0.059388768 -0.063205145
-0.010905527 0.027945394 -0.11227744 0.09175891 0.04632637 -0.0891783 0.10606782 -0.11210348
0.06901715 -0.009924307 0.052235395 0.09291492 0.0024350348 0.06622375 -0.10395841 0.0053910958
0.06542559 -0.053531326 -0.0811825 0.020940408 -0.04050146 -0.018570315 -0.082091704 0.009838755
-0.10465079 0.09635705 -0.0768751 -0.05968274 -0.109912574 0.014337229 -0.055164732 -0.028312279
-0.06638607 0.0030566165 0.06893499 0.004463318 0.08838425 0.010431648 -0.05658354 0.046786286
-0.06653792 0.084557146 -0.037975255 -0.047560517 0.097900175 0.08032507 0.042239968 0.05180794
-0.024691405 0.033880357 0.09494059 -0.06725818 0.10869661 0.019885933 -0.008329519 0.012052709
0.041075777 -0.05651591 0.06909286 -0.031873077 -0.0012356777 -0.025762124 0.085638545 0.0135728475
0.064305395 -0.07853448 -0.010680842 0.032154053 0.06842471 -0.07862446 0.10204963 0.052875523
0.07378877 -0.08364337 0.0019074876 -0.0701728 -0.015694773 0.038395446 0.08777768 -0.0040617124
0.011014127 0.00089819316 -0.06275348 0.07284432 0.06916583 -0.08126066 -0.029591892 -0.055345193
0.0063636038 -0.029607236 -0.043258484 0.021229023 -0.017721748 -0.04491799 -0.07499584 -0.017736815
0.03808859 -0.07102378 0.011078395 0.055226296 -0.032530505 0.06368128 0.021500386 0.025659177
-0.02416989 0.08119132 0.0431178 0.0038692215 0.070774175 -0.00797924 -0.0639526 -0.03903633
0.046176586 0.08354118 -0.05549096 -0.107722245 0.04891528 0.03057259 0.035078004 0.059137437
-0.025223382 -0.04623906 0.08401382 0.07573835 0.0070720366 -0.07898999 -0.08860357 0.111288115
-0.08748051 0.02789879 0.024854295 -0.08822233 0.0028561228 -0.0034908168 -0.07875077 0.066189915
-0.017503189 0.090298444 -0.084478326 0.004664308 -0.0036338114 -0.07514996 0.007467266 0.0135762235
0.009267588 0.07415541 0.066247314 0.024522146 0.05422848 0.046434995 -0.058911663 0.069764376
0.049966477 -0.040076055 0.027944693 0.0706132 0.02541606 0.07089015 0.047136314 0.059978772
-0.08778113 0.067975044 0.07698531 -0.06689913 0.043472048 -0.10486987 -0.05940432 -0.09655995
-0.032590594 0.031238912 0.06702007 0.060592636 -0.053580754 -0.05261716 0.08034801 -0.09996534
-0.006907162 0.049442794 -0.05240365 0.042976934 0.021162253 0.07742828 -0.028596332 -0.09499533
0.0019301227 0.0898033 -0.007684712 -0.046365622 -0.054678794 -0.07118326 -0.06108998 0.013418008
0.009797908 0.029360669 0.07631635 0.011400714 0.0026121377 0.10405242 -0.088678025 0.06156928
00000000: 8931 56bc 704b ec3c 3d59 cbbc 989e 57bc
00000010: c4ba 363d a6a1 2c3d 3a95 b63b 574a 46bc
00000020: 2d8b 81bd f172 5c3d 1fa5 43bc 346e 9fbd
00000030: 87c3 2abd 1d40 8dbd 2ab2 673b 5d5d 17bb
00000040: cbfd b13d 27ef dcbd aa7d 2c3d ad3f 993d
00000050: 787f ddbc ede7 ba3c df50 a93d cbae 193d
00000060: 9b10 cc3b 23e4 33bd f9fd 853c 6698 ddbc
00000070: f588 a9bd 434d bc3c f0ed a23d 9ae5 223d
00000080: 8bf5 6cbc f111 1b3d fd91 20bc 1686 bc3c
00000090: 9574 b23c 74a6 29bc 4ae8 eebc 5c25 363d
000000a0: b7d7 9b3d a80e 58bd 47b5 103d 1951 87bc
000000b0: d9f0 f7bb 9ba3 b9bd a17f 933d 209a 013d
000000c0: 5e29 8e3d 1a5b 9dbd bfcc c7bc 3c8c 7abb
000000d0: 0d60 4bbc c2f5 193d a341 733d b371 81bd
000000e0: 18ad 32bc bded e43c b7f1 e5bd 18ec bb3d
000000f0: b8c0 3d3d 1da3 b6bd 163a d93d 8296 e5bd
00000100: dd58 8d3d 9099 22bc c8f4 553d 2d4a be3d
00000110: 1b95 1f3b 51a0 873d 26e8 d4bd caa7 b03b
00000120: dafd 853d aa43 5bbd 0343 a6bd 388b ab3c
00000130: dce4 25bd c620 98bc b21f a8bd bb32 213c
00000140: 2753 d6bd d856 c53d b170 9dbd e475 74bd
00000150: d819 e1bd b2e6 6a3c 6af4 61bd 27ef e7bc
00000160: 6bf5 87bd 8451 483b ca2d 8d3d 0641 923b
00000170: cd02 b53d 81e9 2a3c 24c4 67bd faa2 3f3d
00000180: 0845 88bd 4c2c ad3d f18b 1bbd d1ce 42bd
00000190: e37f c83d 7881 a43d d103 2d3d 9034 543d
000001a0: a145 cabc 21c6 0a3d 3670 c23d a8be 89bd
000001b0: 549c de3d d3e7 a23c 8978 08bc ba78 453c
000001c0: 133f 283d 3a7d 67bd 8f80 8d3d 588d 02bd
000001d0: 77f6 a1ba 170b d3bc 4363 af3d a660 5e3c
000001e0: 8cb2 833d afd6 a0bd b3fe 2ebc f8b3 033d
000001f0: 4122 8c3d dc05 a1bd 65ff d03d 0194 583d
00000200: 911e 973d 374d abbd aa04 fa3a c2b6 8fbd
00000210: 5392 80bc 8b44 1d3d c9c4 b33d 1d18 85bb
00000220: 9974 343c b974 6b3a e684 80bd 672f 953d
00000230: d1a6 8d3d fd6b a6bd b26a f2bc a4b1 62bd
00000240: c785 d03b e08a f2bc cf2f 31bd 7de8 ad3c
00000250: 332d 91bc edfb 37bd 6b97 99bd cc4c 91bc
00000260: c802 1c3d ea74 91bd 2882 353c f834 623d
00000270: b53e 05bd 556b 823d 9421 b03c 3233 d23c
00000280: efff c5bc a347 a63d 4a9c 303d c492 7d3b
00000290: 0df2 903d 5cbb 02bc 95f9 82bd 8fe4 1fbd
000002a0: a923 3d3d a317 ab3d 7d4a 63bd 7b9d dcbd
000002b0: 635b 483d 5e73 fa3c f4ad 0f3d 193a 723d
000002c0: 44a1 cebc 2b65 3dbd 700f ac3d b51c 9b3d
000002d0: 8bbc e73b 81c5 a1bd ca75 b5bd 06eb e33d
000002e0: fb28 b3bd 018c e43c 3c9b cb3c e9ad b4bd
000002f0: ca2d 3b3b 30c6 64bb 1548 a1bd 948e 873d
00000300: d962 8fbc 64ee b83d f902 adbd 0dd7 983b
00000310: 3d25 6ebb 39e8 99bd f8af f43b cf6e 5e3c
00000320: 15d7 173c cbde 973d acac 873d abe2 c83c
00000330: af1e 5e3d 9f32 3e3d 5b4d 71bd a0e0 8e3d
00000340: a6a9 4c3d ca26 24bd 45ec e43c a79d 903d
00000350: 5735 d03c db2e 913d 0212 413d 4dac 753d
00000360: 98c6 b3bd 8036 8b3d 79aa 9d3d 6902 89bd
00000370: bf0f 323d 04c6 d6bd f251 73bd 39c1 c5bd
00000380: b77d 05bd bfe8 ff3c d241 893d fc2f 783d
00000390: 7e77 5bbd 1785 57bd 7f8d a43d a1ba ccbd
000003a0: 7955 e2bb 8784 4a3d 36a5 56bd 9508 303d
000003b0: 765c ad3c b892 9e3d db42 eabc e98c c2bd
000003c0: 2cfc fc3a cbea b73d 09d0 fbbb e1e9 3dbd
000003d0: dff6 5fbd 87c8 91bd 7d39 7abd 34d7 5b3c
000003e0: 6887 203c c985 f03c bf4b 9c3d 0fca 3a3c
000003f0: 6630 2b3b 6f19 d53d d39c b5bd 1230 7c3d

conv_cls.bias f4 [18]
0.15945324 -0.08701469 0.025371091 -0.023840016 0.10368593 -0.032289866 0.18323238 -0.10542308
0.13675617 -0.08265365 0.005989223 -0.045930948 0.053339005 -0.12744433 0.100761116 -0.035347175
0.1072372 -0.010124382
00000000: b647 233e c234 b2bd 09d7 cf3c 234c c3bc
00000010: 4a59 d43d 6142 04bd 45a1 3b3e 0ee8 d7bd
00000020: cf09 0c3e 5146 a9bd 3e41 c43b 1722 3cbd
00000030: 007a 5a3d c480 02be d85b ce3d 33c8 10bd
00000040: 2d9f db3d bce0 25bc
