checkpoint3/score.pth (torch_old, 6212 bytes, 2 tensors)

weight f4 [11, 128]
0	0x3d9dbc94	0.07701984
1	0x3d42a23a	0.047517993
2	0xbcca4920	-0.024693072
3	0xbd3b7fe6	-0.04577627
4	0x3da3a596	0.079905674
5	0xbd83ad8a	-0.06429584
6	0xbbb1ca69	-0.0054257405
7	0xbdab9953	-0.08378854
8	0x3d5b62e6	0.053561114
9	0xbd7c5e65	-0.06161346
10	0x3dc3bb7b	0.095572434
11	0x3c921026	0.017829966
12	0xbdb6b357	-0.08920925
13	0xbced1cbe	-0.02894437
14	0x3dabf0cb	0.08395537
15	0xbd772ac3	-0.060343515
16	0x3d167651	0.03673393
17	0x3c9ff261	0.019524755
18	0xbd587109	-0.052842174
19	0xbbfffd82	-0.007812203
20	0xbbf1aed6	-0.0073755784
21	0xbd2c725c	-0.04210125
22	0x3daac270	0.08337867
23	0x3dc717fe	0.09721373
24	0xbde94252	-0.11389603
25	0x3d4f464f	0.05060416
26	0xbd3ef3d8	-0.046619266
27	0xbd9d094c	-0.07667789
28	0x3bf2aa0f	0.0074055265
29	0xbdf4108f	-0.11917221
30	0xbd377fd7	-0.044799652
31	0xbd84831a	-0.06470318
32	0xbd18717b	-0.0372176
33	0xbd249767	-0.04018345
34	0x3d37c836	0.04486867
35	0xbd3ae4dc	-0.045628414
36	0x3cfa15c3	0.030527955
37	0xbc524eaa	-0.012836138
38	0x3c8848e0	0.016636312
39	0x3d15a5b9	0.036535
40	0x3c172a9d	0.009226468
41	0xbcf8ffac	-0.030395351
42	0xbc9e6307	-0.01933433
43	0x3c99ccb8	0.018774375
44	0xbdd7719a	-0.10519715
45	0xbd29e5a9	-0.041478787
46	0x3d7238e7	0.059136298
47	0xbd0ef498	-0.03490123
48	0xbc6d4704	-0.0144822635
49	0xbbd4e736	-0.006497289
50	0xbcff07f2	-0.031131718
51	0xbda2885b	-0.07936164
52	0x3d3a3f75	0.045470674
53	0xbd9a92ad	-0.075475074
54	0xbd6198cd	-0.055077363
55	0x3c8ec26d	0.017426694
56	0xbe07ccc6	-0.13261709
57	0x3dc3c506	0.095590636
58	0xbd09a8cc	-0.033608243
59	0x3db83cf0	0.08995998
60	0x3d681536	0.056660853
61	0xbd49cf83	-0.049270164
62	0x3d39c77c	0.04535626
63	0x3dac7cea	0.08422263
64	0x3cf91fba	0.030410636
65	0x3d3349be	0.043771498
66	0x3d7a6c0b	0.061138194
67	0x3daed138	0.08535999
68	0xbbf1c949	-0.0073787314
69	0xbda0f851	-0.078598626
70	0x3da0b03d	0.07846115
71	0xbd0bdbe6	-0.03414526
72	0xbcf88414	-0.030336417
73	0xbe12c036	-0.14331135
74	0xbdaa1fad	-0.08306823
75	0x3dab7d32	0.083734885
76	0x3dabf10b	0.08395585
77	0xbc6e4082	-0.014541747
78	0x3c3b3b64	0.011427734
79	0xbc8fb314	-0.017541446
80	0xbb92fd90	-0.0044857934
81	0xbda8d2aa	-0.08243306
82	0x3d83fa02	0.064441696
83	0xbd3de0ff	-0.04635715
84	0x3d0ff789	0.035148177
85	0x3dccb8d4	0.09996191
86	0xbd873216	-0.0660135
87	0x3d9bcbde	0.07607244
88	0xbd859824	-0.06523159
89	0x3d692faf	0.05693024
90	0x3dca67b9	0.09883065
91	0x3cca4992	0.024693284
92	0x3d71b341	0.05900884
93	0x3da12f2c	0.078703254
94	0x3dcd5afc	0.100271195
95	0x3d40fc4c	0.04711561
96	0xbdbaf9b0	-0.09129655
97	0x3d88a840	0.06672716
98	0xbd141a98	-0.036158174
99	0x3db72dae	0.089442596
100	0xbd85636e	-0.06513105
101	0x3cf83729	0.03029974
102	0x3b575d38	0.003286196
103	0xbd716c05	-0.058940906
104	0xbe0f4dbd	-0.13994499
105	0x3d83ef82	0.06442167
106	0xbd7005ba	-0.05859921
107	0xbde3167c	-0.11088273
108	0x3d9f2157	0.07770031
109	0x3d604845	0.05475642
110	0x3d80bc78	0.062859476
111	0xbd9489d2	-0.0725285
112	0xbd6bcafc	-0.057566628
113	0x3ca0d57b	0.019633045
114	0xbd9bcf6c	-0.07607922
115	0xbd14b279	-0.036303017
116	0xbc78556b	-0.015157084
117	0xbe10ba03	-0.14133458
118	0x3d48d5a3	0.049031865
119	0x3d5a34c9	0.053272996
120	0xbdf80b3b	-0.12111517
121	0x3daf66c2	0.08564521
122	0x3c9a1673	0.018809533
123	0xbd8735dd	-0.066020705
124	0x3daf2353	0.085516594
125	0xbc324b52	-0.010882216
126	0xbdebf25b	-0.11520835
127	0xbdaaf9aa	-0.08348401
128	0xbdd6741c	-0.10471365
129	0xb9a4ac5b	-0.00031408932
130	0x3d89de7d	0.067318894
131	0x3da2ea1b	0.07954808
132	0xbd0813e9	-0.033222113
133	0x3b3d2054	0.002885838
134	0x3d0a2fe8	0.033737093
135	0x3cd908df	0.026493488
136	0xbd8d6c45	-0.069054164
137	0xbe0be19c	-0.13660282
138	0xbc4988f5	-0.0123007195
139	0xbe16a4f5	-0.14711364
140	0xbc9a6ec0	-0.018851638
141	0xbd4b1068	-0.049576193
142	0x3cbd4d1e	0.023108061
143	0xbd93ad87	-0.07210832
144	0xbc9366f8	-0.017993435
145	0xbda6fce9	-0.081537075
146	0xbd887d01	-0.066644676
147	0x3cd60051	0.026123198
148	0xbd9a6189	-0.075381346
149	0x3cd844c6	0.026399981
150	0x3d145c66	0.03622093
151	0xbe0cb9a7	-0.13742696
152	0x3d667953	0.056268048
153	0x3bbd40da	0.005775553
154	0x3c00b710	0.0078561455
155	0x3ddd25ee	0.1079825
156	0xbd49a9ba	-0.04923413
157	0x3d698d51	0.057019535
158	0xbd7d0ee2	-0.06178177
159	0xbd8cf3b7	-0.068824224
160	0x3dc69fcd	0.09698448
161	0x3d967707	0.073469214
162	0xbd47064e	-0.048589997
163	0x3d898d15	0.067163624
164	0x3c8df87e	0.017330404
165	0x3d5c40a4	0.053772584
166	0xbd9ff981	-0.07811261
167	0x3d3a01f8	0.045412034
168	0x3d8cbd82	0.06872083
169	0x3d3523f9	0.04422376
170	0xbbb89ac7	-0.0056336853
171	0xbca3c072	-0.019989226
172	0x3dd21db0	0.10259569
173	0x3d9d0bcf	0.07668268
174	0xbd899350	-0.06717551
175	0xbd861eba	-0.065488294
176	0x3d111d2d	0.035428215
177	0x3cea04a7	0.028566672
178	0x3d5f21ac	0.05447547
179	0x3cee3ea5	0.029082606
180	0x3c93a30a	0.018022079
181	0xbd820115	-0.06347863
182	0x3cd58e24	0.026068754
183	0x3dc3c52b	0.09559091
184	0x3d25ed45	0.04050948
185	0xbc73b737	-0.014875225
186	0xbd9d3310	-0.07675755
187	0x3d673b72	0.056453176
188	0x3da6c77d	0.08143518
189	0x3d2b51fd	0.041826237
190	0x3b0e2586	0.0021689846
191	0x3d67387b	0.05645035
192	0xbcb24c16	-0.021764796
193	0xbdada5b4	-0.08478871
194	0xbe0a71bf	-0.13519953
195	0x3cf9ce52	0.030493889
196	0x3bcb84de	0.0062109074
197	0xbbfce747	-0.007718
198	0x398e6e1b	0.00027166386
199	0xbdebae49	-0.11507852
200	0xbd8393d8	-0.06424683
201	0x3d8147ee	0.063125476
202	0x3cee5ec3	0.02909792
203	0x3ccbf276	0.024895888
204	0xbd983a90	-0.07433045
205	0x39c7609e	0.00038028223
206	0xbd864a1c	-0.06557104
207	0x3d63f039	0.055649016
208	0x3d9bfcb7	0.07616561
209	0xbdb0b8ee	-0.086290225
210	0x3d90dde2	0.07073571
211	0xbd43b9e0	-0.047784686
212	0xbd874158	-0.0660426
213	0xbdac24ab	-0.08405431
214	0x3d027fcd	0.03186016
215	0x3c5569fa	0.013025755
216	0x3d2c33e8	0.04204169
217	0x3d924b34	0.0714325
218	0x3c0ae2d9	0.008476936
219	0xbd955ad6	-0.07292716
220	0xbd12bb5a	-0.035823204
221	0xbd18abe5	-0.037273306
222	0x3d377f48	0.04479912
223	0xbcf8d200	-0.030373573
224	0xbd9139fc	-0.07091138
225	0x3c435fcb	0.011924694
226	0xbd9dde7d	-0.07708452
227	0x3d3307c8	0.043708593
228	0x3d870af4	0.06593886
229	0x3c92443f	0.017854808
230	0x3c97c8d2	0.018528376
231	0xbd5c9def	-0.053861555
232	0x3d895526	0.06705694
233	0xbd04daea	-0.032435335
234	0x3cb837ed	0.022487605
235	0xbd6a573f	-0.05721211
236	0xbdb83a97	-0.0899555
237	0x3c27a31c	0.010231759
238	0x3c8a9537	0.016916854
239	0xbd7eaec4	-0.06217839
240	0xbbeff158	-0.0073224716
241	0x3bc555b9	0.006022182
242	0x3ccf82d8	0.025330946
243	0x3d6a4fcd	0.05720501
244	0x3d9464f1	0.072458155
245	0xbd5824da	-0.05276952
246	0x3d57f5c0	0.0527246
247	0xbda3d05e	-0.07998727
248	0x3ac3f703	0.0014950935
249	0xbd22cc7c	-0.039745793
250	0xbd8c96cc	-0.068647
251	0xbd4cb017	-0.04997262
252	0xbdb33466	-0.087502286
253	0x3d17d700	0.037070274
254	0xbe0f4370	-0.13990569
255	0x3daeb7a6	0.08531122

bias f4 [11]
0	0xbd823740	-0.06358194
1	0xbc514199	-0.012771987
2	0xbdadb1ac	-0.08481154
3	0x3da34902	0.079729095
4	0xbceab95b	-0.028652837
5	0x3d3ac301	0.045596126
6	0x3c44339b	0.011975194
7	0x3d0b0d53	0.033948254
8	0x3d758506	0.059941314
9	0xbd7e734b	-0.06212167
10	0xbd4f717b	-0.050645333
